Data/artifacts/deepfm_pytorch.pth (torch, 347762 bytes, 15 tensors)

emb.gender.weight f4 [2, 16]
000000 85 a2 8f be 4d f9 c3 bd 84 ba a6 3e bb 2d 20 3f
       -0.2805368 -0.09569035 0.32564175 0.6256978
000010 35 5c d5 3e fb d3 ff be 27 74 ab be ac 94 49 bd
       0.4167191 -0.49966416 -0.33487055 -0.04921405
000020 5a 61 c2 be 5e b4 89 3e c7 cb 4c 3e 10 b1 ca bd
       -0.37964898 0.26895422 0.1999961 -0.09897053
000030 ce 22 27 be a4 f0 05 3e d2 97 d9 3e 2a 43 41 3e
       -0.1632187 0.13080078 0.42498642 0.18873277
000040 cc 30 97 3e dc f6 f0 3e b6 4a 4d 3e a6 57 67 3c
       0.29529417 0.4706334 0.20048031 0.014120018
000050 e2 c6 bd bd b2 73 a8 3e f7 cc fb 3d 15 e4 8a 3e
       -0.092664495 0.3290077 0.12294953 0.27127138
000060 44 f7 6a be 24 c8 b8 bd 29 c5 90 3e 86 b9 77 be
       -0.22945887 -0.09022549 0.2827542 -0.24191865
000070 cf ea ec be 20 e3 0f bf 1b d6 2b be a8 73 b2 3e
       -0.46272895 -0.5620594 -0.16780894 0.34853864

emb.age.weight f4 [7, 16]
000000 f3 56 83 be 09 50 4a bd af 9a 87 be 02 51 9f bd
       -0.25652274 -0.049392734 -0.26485202 -0.07779123
000010 d5 f0 7f be 69 e1 a6 bd 5a cf 54 3e 9c 85 a7 be
       -0.24994214 -0.08148462 0.20782223 -0.32719123
000020 97 a5 bd be d7 4f ac 3e 12 e4 ee 3c 40 e1 93 be
       -0.37040398 0.33654663 0.029161487 -0.2888279
000030 86 92 af be 7c 30 b6 3e a8 9d 1b be 17 0d 89 3e
       -0.34291476 0.35583866 -0.1519686 0.267678
000040 90 40 8f 3e e7 90 1d 3e e0 74 01 bf 31 c1 08 3e
       0.27978945 0.15387307 -0.5056896 0.13354947
000050 8d 0d a4 be 3a 1a e2 be 9d f0 bc be 85 e7 25 3d
       -0.32041588 -0.44160634 -0.36902323 0.040503997
000060 8a 0d bb be a2 0e ac be 42 44 36 3e 98 d4 31 3e
       -0.36533767 -0.33604914 0.17799476 0.17366254
000070 45 b8 76 be 8f b3 93 3e 33 b0 ba be fa c3 88 3e
       -0.24093731 0.2884793 -0.36462554 0.26712018
000080 6d a5 a8 be 22 ce 62 3d 67 4a fe be 24 cc ec 3e
       -0.3293871 0.055372365 -0.4966614 0.46249497
000090 ac e4 c0 3e 85 b1 3c 3e 03 f5 77 3e e8 33 73 3e
       0.37674463 0.18427093 0.24214558 0.2375027
0000a0 d5 0f b4 3e 4c 9b 1b be 31 c3 39 3e 86 1b ca be
       0.3516833 -0.1519596 0.18140866 -0.39474124
0000b0 dd 88 20 be 49 98 33 3d 7b 46 53 be f2 7f a8 3e
       -0.15677209 0.043846402 -0.20632355 0.32910115
0000c0 44 08 91 3e 6a 80 fa 3d a0 3b 9e bd 0f f4 02 3e
       0.2832662 0.12231524 -0.07726216 0.12788413
0000d0 f7 e0 b1 3c 1b ee eb bd 72 5a 06 3e 68 da 5d 3e
       0.021713717 -0.115200244 0.1312044 0.21665347
0000e0 30 a1 9b 3e ff 2e 25 be b5 24 60 be 9b da ea bc
       0.30396414 -0.16131209 -0.21889003 -0.028668692
0000f0 08 48 96 be 2c f2 4c 3e 30 93 d4 bc 6f 49 df bd
       -0.2935183 0.20014256 -0.02594909 -0.10902678
000100 38 1d 2e be 09 70 f0 bd fd bf 21 bd 01 1d 0c 3e
       -0.17003334 -0.11740119 -0.039489735 0.13682939
000110 41 84 60 3e 17 e8 62 bd c7 a5 95 3e 39 eb a5 bd
       0.21925451 -0.05539712 0.2922804 -0.08101506
000120 da 5d e3 3e c4 b4 8e bd d7 75 61 3d a2 84 00 bc
       0.4440754 -0.06968072 0.05504402 -0.007844122
000130 d8 fb bf ba fe 04 0b 3e ff 77 7f be cb 07 4d 3e
       -0.0014647199 0.13576123 -0.24948119 0.20022504
000140 45 ab 1b be fb b7 ba bb 76 e1 2a 3e f6 a3 a1 3e
       -0.15202053 -0.0056982017 0.16687569 0.31570405
000150 11 12 5c 3e 39 2b b1 bd 69 95 88 3d b2 57 b1 3e
       0.21491267 -0.08650822 0.06669123 0.3463722
000160 55 43 1c be 71 3a 94 be 89 08 37 bd ae b9 e8 3e
       -0.1526006 -0.28950837 -0.044685874 0.45454162
000170 4a 48 2a be 62 3b d8 be dc 01 53 3c 0c 3e de bd
       -0.16629139 -0.42232805 0.012878861 -0.10851678
000180 35 e3 82 3d cd 5c b4 3e 6b ed a4 3e 25 08 c6 be
       0.063909926 0.3522705 0.32212386 -0.3867809
000190 2d 25 68 bc 1a 26 96 3e 60 7f ba be bb 60 81 bd
       -0.01416902 0.29325944 -0.36425304 -0.06317278
0001a0 be 9f c7 3e d5 5d ca 3e 06 81 9b bd e9 d7 0e bd
       0.3898906 0.39524713 -0.07592969 -0.034873877
0001b0 7c c0 91 3d b1 f2 58 be 95 c4 ed 3e 4b 51 bd 3e
       0.071167916 -0.2118633 0.46439043 0.36976084

emb.occupation.weight f4 [21, 16]
000000 af 76 a2 3d 75 c8 02 be a4 18 16 bd 36 d6 b0 bd
       0.07932793 -0.12771781 -0.036644593 -0.086346075
000010 3c 7a 7e be 30 b0 67 3c ca cd 98 3d 15 4d 55 3d
       -0.24851316 0.0141411275 0.07461126 0.052075464
000020 84 0c 9f bc 71 2a ba bd 1c 3b 2a 3e 04 81 24 3c
       -0.019415148 -0.09090126 0.16624111 0.010040525
000030 dd dc 84 3e fd 65 51 3e bb 26 3b 3e c5 8a 69 3e
       0.25949755 0.20449062 0.18276493 0.22806843
000040 88 9a 67 3e 1c 9e 10 3e 48 35 b1 3d e1 b3 12 3e
       0.22617543 0.14122814 0.08652741 0.14326431
000050 ff 84 64 3d 14 24 16 3e 23 02 0d be f4 d2 91 3e
       0.055790897 0.146622 -0.13770346 0.28481257
000060 8f c7 ad 3e 45 aa 00 3e 8f 71 1b 3e 66 ba c4 3e
       0.33941314 0.12564953 0.15180038 0.3842346
000070 7a 83 8f 3e ec 85 4f 3e 4e 8d bd 3c 54 07 23 bd
       0.28029996 0.20265931 0.023138668 -0.03980191
000080 63 a0 dd bd a5 7d 1b bc 1b ec ef bd 98 14 05 be
       -0.10821607 -0.009490405 -0.117149554 -0.12996137
000090 ac c4 2c bd ce 8e 0a 3e 38 64 ac bc dc 24 77 be
       -0.04217975 0.13531038 -0.021043882 -0.24135154
0000a0 26 14 2e 3e 08 c7 44 3e 0f af 9b 3e c0 bf 7d 3e
       0.16999874 0.1921655 0.30406997 0.24780178
0000b0 ab 10 f5 bd 12 3d 8a bd 67 3c 5d 3d dc 8e 52 3e
       -0.1196607 -0.067499295 0.054012682 0.20562309
0000c0 d1 a9 d6 bd 58 39 e6 bd b8 7f 81 3e 80 15 79 be
       -0.10481609 -0.11241406 0.25292754 -0.24324608
0000d0 c0 c5 88 3e 92 12 9a be fc 9c a4 bd 48 7c 05 be
       0.2671337 -0.30092293 -0.08037755 -0.13035691
0000e0 43 80 d5 3d 0f 98 15 be e8 3b cc bd 88 4d f2 bd
       0.104248546 -0.14608787 -0.09972364 -0.11831194
0000f0 30 ea 31 be 52 6a 81 be 88 23 39 be 5e c0 2a 3d
       -0.17374492 -0.25276428 -0.1807996 0.041687362
000100 8d b4 d7 be a4 87 03 3e d3 0c 78 3e 11 56 1b be
       -0.42129937 0.12844712 0.24223642 -0.1516955
000110 20 eb 8b 3d 6e 4a 07 3d ff 6f bb 3c eb 22 7a 3e
       0.06831956 0.033029966 0.022880552 0.24427383
000120 86 00 b9 be 42 d9 98 bd 36 22 9f be f6 52 37 bd
       -0.36133212 -0.07463314 -0.31080788 -0.044756852
000130 5b 17 a3 be 0f 44 88 3d e3 44 4a be 21 bd 56 3e
       -0.31853756 0.06653606 -0.1975284 0.20970584
000140 0f e3 15 3d 71 b3 b3 3e 18 90 89 3e b5 b3 87 3e
       0.036593493 0.3509784 0.26867747 0.26504293
000150 03 55 c0 be 21 91 29 be e9 dc 18 3e 41 14 38 be
       -0.3756486 -0.16559269 0.1492802 -0.17976476
000160 1e 12 d1 3d b2 d4 0f 3e c5 1e 95 bc e1 14 40 3e
       0.10208534 0.1404598 -0.018203149 0.18757965
000170 39 10 36 3e 05 f4 60 3d 1f 2f 18 be 98 77 71 3e
       0.17779626 0.054920215 -0.14861725 0.23580778
000180 47 95 0f 3e d0 c2 53 3d b6 c5 95 bc 48 bc e5 bd
       0.14021789 0.05169946 -0.018282752 -0.112175524
000190 1d fc 52 be 55 88 9f 3d 2d fe 1a 3e 34 09 92 3c
       -0.20603986 0.07789675 0.15136023 0.017826654
0001a0 7b 7b 9a bd 88 07 82 3e e9 0a a2 3e 2d d2 f2 bc
       -0.07543083 0.2539637 0.3164895 -0.029641235
0001b0 8c 55 a3 3d 91 3c 92 3e e3 f9 8d 3c 0f 65 03 bd
       0.07975301 0.28561834 0.01733107 -0.0320788
0001c0 4b f0 23 bd 60 83 fd 3c 0c 9f 3e 3e 20 99 e3 bd
       -0.040024083 0.030946434 0.18615359 -0.11113191
0001d0 18 a8 49 3e 96 94 b8 be aa c0 70 bd 59 5e 9d 3e
       0.19693029 -0.36050862 -0.05877749 0.30736044
0001e0 a9 ab b8 3e 9f 90 ef bd e9 e0 db bd 76 1e af 3e
       0.36068466 -0.11697506 -0.107362576 0.34202927
0001f0 19 71 0d 3e ee d4 2b 3e da 7b 4c be 1a 3b 9d 3e
       0.13812675 0.16780445 -0.1996912 0.30709153
000200 64 97 4b 3e 70 92 77 bd 5a 77 52 3e 41 23 83 be
       0.1988197 -0.060442388 0.20553342 -0.25612834
000210 07 ec 0d 3e 11 03 87 be 38 54 a9 3e 1e 10 a9 be
       0.13859569 -0.26369527 0.33072066 -0.3302011
000220 8e a7 b6 3e be 9c 5f bd f9 08 24 be 2c e9 7b 3e
       0.3567471 -0.05459284 -0.16019048 0.24600667
000230 19 e7 94 be ce 71 2c be f1 14 9b 3e cb d3 c1 3e
       -0.29082564 -0.16840288 0.30289415 0.37856898
000240 8c 7b 68 be 6e 3d ed be a8 6d 3c 3d 43 03 5d be
       -0.2270338 -0.4633593 0.046003014 -0.21583275
000250 3d 1c 59 be e0 c6 78 bd 31 b8 6f be b1 b0 30 3e
       -0.21202178 -0.060736537 -0.23410107 0.17254902
000260 7e 2b 54 3c 5a f1 86 3d dc 98 5b 3d e7 0b c0 3d
       0.0129498225 0.06589003 0.053612575 0.0937727
000270 cb 84 65 be b3 e7 7a be 97 69 6a be c1 e4 94 3d
       -0.22413938 -0.24502449 -0.22891842 0.07270194
000280 26 2d 98 bc 0c b5 09 3d ae c6 76 3e 0b 22 60 be
       -0.018576216 0.033619925 0.24099228 -0.21887986
000290 06 11 bf be 3b fc c0 3c 4a 28 11 be 7a b5 a7 bd
       -0.37317675 0.023557773 -0.14175525 -0.08188911
0002a0 f1 6f b9 3d 8a 70 f0 bd ef 06 79 be 92 d5 6f be
       0.09054554 -0.11740215 -0.24319051 -0.23421314
0002b0 92 ea 37 be 1d 95 64 be 85 3e 9f 3d 9d 09 c5 3d
       -0.17960575 -0.22322507 0.077755965 0.09620974
0002c0 f9 a4 1e bc 0f 79 0c 3e cb 09 02 be 9a e2 f3 bd
       -0.009682887 0.13718055 -0.12699048 -0.11908455
0002d0 f2 b1 cc bd ff 3f a0 bc f8 f5 48 be 42 d6 09 3e
       -0.09994878 -0.019561766 -0.1962508 0.13460639
0002e0 74 e5 d8 3e 90 8a 8f bd 86 b1 a4 3e 76 ee 6b 3e
       0.4236256 -0.070088506 0.3216669 0.23040184
0002f0 10 35 86 3e 8f c4 03 3e f7 55 25 be 46 23 96 bd
       0.26212358 0.1286795 -0.16146074 -0.073309466
000300 35 7f 5f 3e 17 02 bf 3d 89 7c 81 bc 03 63 44 3e
       0.2182587 0.093265705 -0.015806453 0.19178395
000310 5d 0f e1 bb 32 29 48 3e cf 0a fe bd 24 3f 82 bc
       -0.0068682865 0.19546965 -0.12404405 -0.015899248
000320 a3 07 6c be ce 24 91 bd 92 b9 fe bc 2f 7d 43 be
       -0.23049788 -0.07087098 -0.031094346 -0.19090723
000330 bf 13 c5 3e 61 b2 ce bd e1 16 5d bb d5 1a 08 3e
       0.38491628 -0.10092617 -0.003373556 0.13291486
000340 9b 5d 74 3c 6a 58 b0 3d 31 63 05 bd 86 00 3f 3e
       0.014914895 0.08610614 -0.0325653 0.18652543
000350 c6 1f f8 3c b5 f1 5a be 22 fe 92 be e3 99 9a bd
       0.030288588 -0.21381266 -0.28709513 -0.07548883
000360 b6 ed ba 3c fb a9 a9 3e 19 80 98 3d ba ba 52 3e
       0.022818428 0.33137497 0.07446308 0.20579043
000370 0b 5c 10 bd ad 53 40 be 59 0e b4 be c2 37 19 3e
       -0.03524403 -0.1878192 -0.35167196 0.14962676
000380 a8 c9 07 be 9c 2f 6d 3e d8 c2 88 bd 3e 2e ac 3d
       -0.1326052 0.23162693 -0.066777885 0.084072575
000390 aa 47 59 be 59 4c d6 bd 5c f0 be bd f4 4b 15 3e
       -0.21218744 -0.10463781 -0.09323189 0.14579755
0003a0 de cc fb bd c1 aa 08 be 64 8c 10 be ec 15 11 3e
       -0.12294935 -0.13346387 -0.14116055 0.14168519
0003b0 6a 78 63 3e 94 7a 9c 3e 6e b5 2a be fc 20 a9 3e
       0.22213903 0.3056227 -0.16670772 0.33032978
0003c0 d8 f8 34 bd c1 71 35 bd c8 af 89 3d d4 d6 27 be
       -0.04418263 -0.044297937 0.06722981 -0.16390544
0003d0 9e 0a f0 3d e1 50 61 be c8 92 50 3e 9b bd 65 be
       0.11720775 -0.22003509 0.20368493 -0.2243561
0003e0 6f 2b 8e 3e ad 0a 6f bd 90 42 8f 3e 49 77 fa 3d
       0.27767512 -0.05835979 0.2798047 0.12229783
0003f0 5d 7f 0d 3d e6 da 9b bd e9 76 0d be 06 3d da bd
       0.03454529 -0.07610111 -0.13814892 -0.106561705

emb.item_id.weight f4 [3883, 16]
000000 e4 f5 56 3e d0 b2 80 3e 5f df 3a be b3 5e 39 3e
       0.20992237 0.25136423 -0.18249272 0.18102531
000010 74 03 33 3d 37 cd b7 bd 99 cc 90 3d 4e c6 54 3e
       0.043704465 -0.089746885 0.07070274 0.20778772
000020 c3 4e 9a 3d d9 ca 4c be c1 35 71 3e 10 6e 78 be
       0.07534554 -0.19999255 0.23555662 -0.24260736
000030 34 dc 87 be 6f 58 2f be ed 71 3e be 78 99 7b 3e
       -0.2653519 -0.17123578 -0.18598147 0.24570262
000040 21 a4 64 3d 12 f1 b8 3d 54 3d 4e bd 75 33 b3 3d
       0.055820588 0.090303555 -0.050351456 0.08750049
000050 ac a9 62 3d dc d2 fb 3c 63 2c 42 3d 78 ae f7 3d
       0.055337593 0.030740194 0.04740561 0.12093824
000060 ab 40 d6 bd d4 f2 12 bd cf aa da 3d 3c bb e7 bd
       -0.10461553 -0.03587611 0.106771104 -0.11315009
000070 bd 7d d0 bd 39 4f 91 bd 7f ac 84 bd 9e ab 76 3d
       -0.10180233 -0.07095189 -0.064782135 0.06022226
000080 89 a2 cc 3c a6 ba 84 3d 9d 63 91 bd ab cd cb 3d
       0.024979847 0.06480913 -0.07099078 0.099513374
000090 ae e0 a1 3d db 37 d8 3c 75 61 8d 3d dd a8 aa 3c
       0.079041824 0.026393821 0.06903354 0.020832473
0000a0 84 51 65 3d af 67 95 bc 52 b5 38 3d b4 13 8c bd
       0.055985942 -0.018237917 0.045094796 -0.068396956
0000b0 1f b6 95 bd 2d 9c 1f bd 13 67 6b bd 2e df 27 3d
       -0.073101275 -0.0389673 -0.057471346 0.040984325
0000c0 90 12 08 be 8d 26 29 bd 65 1c 48 3d d9 0a 87 3d
       -0.13288331 -0.04129653 0.048855204 0.06593866
0000d0 a1 8c 78 3d 92 ec a4 bd 45 1f 31 b8 db c4 3d 3b
       0.06068099 -0.08052935 -4.222921e-05 0.0028956446
0000e0 72 18 77 3c 3e 1b 53 3d 1f e3 7d 3d 9a 2b 8f bc
       0.015081512 0.051539652 0.061984178 -0.017476846
0000f0 80 1e b5 bb 73 12 2f 3d d9 26 b9 3c 0d 16 09 bc
       -0.0055273175 0.042742204 0.022601532 -0.008367074
000100 13 ab 41 bd ee fe 84 bc c9 00 e5 bc 92 8b cf 3d
       -0.04728229 -0.016234841 -0.027954476 0.10134043
000110 ab 20 b0 3d 0a 90 47 bd ef ca 5e 3b 89 c2 f4 3c
       0.08599981 -0.04872135 0.003399547 0.029877918
000120 95 55 3a 3d 95 88 89 bd c7 65 42 3c da 0f 93 bd
       0.045491774 -0.06715504 0.011865086 -0.07180758
000130 f5 fd 4b bd 95 c4 2c 3b 81 a6 b1 bb d9 ca 6a 3d
       -0.04980274 0.002636229 -0.00542146 0.057322357
000140 65 a8 86 3d 6b ad 02 3e 33 61 31 be b8 44 a0 3d
       0.065750875 0.12761466 -0.17322235 0.07825607
000150 cb 71 61 3d 51 8b de 3d 65 b1 da 3d 9f 49 2b 3e
       0.055040162 0.10866416 0.106783666 0.16727303
000160 90 4e 89 3d e6 ad 14 be 5b 61 d7 3d 3d c9 06 be
       0.06704438 -0.14519462 0.10516616 -0.13162704
000170 12 86 cc bd 25 cf e9 bd f0 37 1a be b4 5c f1 3d
       -0.099865094 -0.11416463 -0.15060401 0.1178526
000180 79 30 d2 bd 32 09 32 3c 8a 7d ab bd 5f 64 30 3e
       -0.10263152 0.01086645 -0.08373554 0.17225789
000190 6b ed d9 3d fa 2f 50 3c 6b 69 f8 3c 1b fd b7 3d
       0.10640987 0.012706751 0.030323705 0.08983823
0001a0 0c c5 27 3d 3e e5 e5 bc 9a 62 9c 3d c0 0f f1 bd
       0.040959403 -0.028063413 0.07635994 -0.11770582
0001b0 a3 4e 3a bd 74 5c 3b bd 61 df 58 3c ef fe d1 3d
       -0.04548515 -0.045742467 0.013236851 0.10253703
0001c0 57 4d ce bc 54 be bd bc 30 48 54 bc 8c c7 87 bb
       -0.025183363 -0.023162045 -0.012956664 -0.004143661
0001d0 de 3b 28 bb c7 e7 a3 bc dc 3f 1d bd 02 58 26 bd
       -0.002567045 -0.020007981 -0.03839098 -0.040611275
0001e0 26 00 31 be d0 4c 00 bc 04 fe 7c bc e9 ed 6d bd
       -0.17285213 -0.0078308135 -0.015441421 -0.058088217
0001f0 ea d6 52 bd 12 19 8f 3d 0f f6 b2 bc ac e4 86 bc
       -0.05147449 0.06987204 -0.021845846 -0.016466461
000200 41 1b 29 3c dd ce dd bb 17 54 af 3d ca 25 8e bd
       0.010321439 -0.006769045 0.08560961 -0.069408014
000210 4f ec 08 bd 6a 6a 78 bc ad 72 8e bc 2d 9f 00 bd
       -0.033428486 -0.01516209 -0.017388666 -0.0314018
000220 5e 68 7d bc c8 1d a8 3c 96 44 fe bc 77 c2 a1 3d
       -0.015466778 0.020522013 -0.031038564 0.07898419
000230 a3 7d e7 bb 8b c4 c4 bc 1b 20 09 ba a7 9e ed bb
       -0.0070645376 -0.0240195 -0.00052309193 -0.007251579
000240 77 e1 17 bc 41 9a bd 3a 57 94 b3 3d 2e 6a 4c bd
       -0.009270064 0.0014465527 0.08768528 -0.04990595
000250 94 d4 9a 3c 6c 5c 19 3d 5a a4 3f 3c 80 27 89 bd
       0.018900193 0.037441656 0.011696899 -0.06696987
000260 a2 21 af 3c c1 08 92 3d d0 47 9f bd 8e e1 63 3c
       0.021378342 0.07130576 -0.07777369 0.013908757
000270 0a fa d1 38 51 48 1c bd 09 3e 0a 3d 8b 5a 95 bb
       0.0001001247 -0.038154904 0.033750568 -0.0045579127
000280 94 28 b4 bd 3d 98 1a bc 33 40 7b 3d b0 55 93 3d
       -0.08796802 -0.0094357105 0.061340522 0.07194078
000290 7e 47 bd 3d 88 c0 a0 bd 71 32 36 bd 1d c4 17 3d
       0.09242152 -0.078492224 -0.0444817 0.037052263
0002a0 db d1 aa 3b e5 57 7d 3d 9e 19 60 3c 66 5e 61 bd
       0.005213005 0.0618514 0.013677983 -0.055021666
0002b0 58 dc 08 bc b2 42 a2 3c 79 75 12 3d 75 9c 8b 3d
       -0.008353315 0.019807193 0.035756562 0.06816951
0002c0 1a 24 5c bd af a8 fa bd 27 e5 c3 3d e5 4f 2d be
       -0.053745367 -0.12239205 0.09565192 -0.16925009
0002d0 70 c2 ea bd df b0 8e bd 74 74 1e be fb 21 19 be
       -0.11462867 -0.06967329 -0.15474111 -0.14954369
0002e0 26 67 f5 bd 37 1d 13 3e 68 1e 11 be d6 6e 2e 3e
       -0.11982565 0.14366613 -0.14171755 0.17034468
0002f0 8a 7f 30 3e 0f 4f d9 3d f1 74 2f 3e d9 b5 15 be
       0.17236152 0.10610782 0.17134453 -0.1462015
000300 f2 88 53 bd 18 43 62 bd 72 35 f7 3c 3c 9e af bd
       -0.051644273 -0.055239767 0.030176852 -0.08575103
000310 68 e1 b6 bd ec 01 0f bc e5 ce 9b bd 4c 93 76 bd
       -0.089297116 -0.008728486 -0.076078214 -0.060199067
000320 34 06 ae bd f0 f2 e8 3d 64 ff f9 bd 77 cb eb 3d
       -0.08497277 0.11374462 -0.12206915 0.11513417
000330 7b dc 5f 3d c8 51 aa 3d 2a 18 48 3d 40 73 b7 bd
       0.054653626 0.0831638 0.04885117 -0.08957529
000340 67 5e 93 3c 9d 77 45 bd 04 b6 7f bd b8 4e d3 bd
       0.01798935 -0.048209775 -0.062429443 -0.10317749
000350 15 5a c6 bd df ea f0 ba 66 c1 db bc b5 bd ee bd
       -0.096851505 -0.0018380544 -0.026825618 -0.116572775
000360 1a 34 bb bd 4f 75 c8 3d d3 8d c1 bd 49 f3 50 3d
       -0.09140797 0.09788 -0.09450879 0.051013265
000370 f7 2b b4 3d e8 3a b0 3d db 65 02 3d 23 21 af bd
       0.08797448 0.086049855 0.03183542 -0.08551242
000380 07 29 8e bd 9c 39 0a be e7 1c b9 3d e0 2a 35 be
       -0.06941419 -0.13498539 0.09038716 -0.17692137
000390 22 a5 31 be 6b c1 16 be 8e 48 04 be 02 93 f6 bd
       -0.1734815 -0.1472222 -0.12918302 -0.12039758
0003a0 53 8b d5 bd e5 be 3d 3e 13 c5 31 be ba 71 22 3e
       -0.104269646 0.18529852 -0.17360334 0.15863696
0003b0 d5 88 ff 3d 18 25 09 3e f9 a6 25 3e e3 1e 2e be
       0.124772705 0.13393056 0.16176976 -0.1700397
0003c0 16 2d 9e bc 6b 11 70 bd f7 21 ba bd f2 19 78 bc
       -0.019308608 -0.05861036 -0.090885095 -0.015142905
0003d0 44 1c ed bc 87 6d 7c 3b 53 b7 6b 3b 61 84 ca bc
       -0.028944142 0.0038517432 0.0035967424 -0.024721326
0003e0 6c c9 58 bd 22 e1 06 3d 0e be 96 bc 68 27 22 bc
       -0.052926466 0.032929547 -0.018401172 -0.0098970905
0003f0 bc 98 64 3d 9b d1 da 3c 9b e0 12 3c d0 5a 1e bc
       0.05580972 0.026711276 0.008964683 -0.009665206

emb.genre.weight f4 [18, 16]
000000 b0 af 5c bb 7e 61 8c 3e 92 0d 5f be cb 2e 86 bc
       -0.0033674054 0.2741813 -0.2178252 -0.016379735
000010 50 eb 96 3b 07 37 2c be df 40 9a 3e 03 b8 fd 3d
       0.004605688 -0.16817866 0.30127618 0.12388613
000020 48 96 15 3e 49 0a 97 be dd 0c 93 be 27 5d 9d bd
       0.14608109 -0.29500034 -0.2872075 -0.07683783
000030 18 9b 09 be a5 ae 31 3d 25 ab e4 3d 1c 9a 3f 3d
       -0.1343807 0.043379445 0.11165456 0.04677783
000040 b2 df b4 3e a1 eb b0 be ab 82 41 bc ed f3 cd bd
       0.35326916 -0.3455477 -0.011810939 -0.10056291
000050 dc 8f 6c 3d 0c 6b 18 be 8d 82 a9 3d e7 11 54 3e
       0.057754382 -0.14884585 0.08276854 0.20709954
000060 3c f3 6d be e9 fa a4 3e e3 a2 d0 bc 7d 27 07 3c
       -0.23237318 0.3222268 -0.025468295 0.008249161
000070 2b 2b 8f 3e 56 4a 89 3b 76 44 b6 be 7b 19 8e 3e
       0.27962622 0.0041897697 -0.35599107 0.27753815
000080 6c 5d 1c 3e b7 d2 84 3d eb eb a6 be bd 46 ec 3e
       0.15270013 0.06485503 -0.32601866 0.4614772
000090 19 36 4b be f8 dc c1 be c5 b1 ab bd c8 ec ae bd
       -0.19844855 -0.37863898 -0.08383516 -0.08541256
0000a0 21 a2 57 3d 5b 09 3c be 4c 6c c5 bc d6 db fb be
       0.052644853 -0.18362944 -0.024099492 -0.4919116
0000b0 7d bd f1 bd b3 6b e8 bd b5 18 c3 3d 79 ab 89 be
       -0.1180372 -0.11348667 0.09526197 -0.26888636
0000c0 74 c9 82 be 37 76 c2 be c3 b1 e8 3b a3 76 5a bd
       -0.25544322 -0.37980816 0.007101269 -0.053335797
0000d0 d4 73 7d be e8 15 fe 3d cf 99 4c be 8f 4b 5d be
       -0.24751216 0.12406522 -0.19980548 -0.21610855
0000e0 2c c5 1f 3e 49 00 52 bd 41 0d bd be 75 75 c3 be
       0.15602559 -0.051269803 -0.36924174 -0.3817555
0000f0 f2 61 77 3d 7f 0e d8 3d 79 03 b8 be 34 fd d2 be
       0.060396142 0.1054964 -0.3594015 -0.41208804
000100 69 82 74 3d b5 0e 23 be 1c 96 5a be 54 ac 76 3e
       0.05969468 -0.15923579 -0.21346325 0.24089175
000110 6d 1b 1d be b9 ea 21 3d cc f6 f0 3c 39 98 5c 3e
       -0.15342493 0.03953049 0.029414557 0.21542443
000120 f2 dc 86 3e 5e 61 8e 3c b4 a5 a6 be a8 54 25 be
       0.26340443 0.017380413 -0.32548296 -0.16145575
000130 f0 35 38 be 77 23 0c be 39 28 f5 3d bd 4c 76 bd
       -0.17989326 -0.13685404 0.119705625 -0.060131777
000140 ec 1f 21 3d 01 55 be bd c2 7f b2 3d 50 5d 3c 3e
       0.039337084 -0.09293557 0.08715774 0.18394971
000150 d0 55 97 3c 1f b3 94 3e 9e 3c 2c 3e 68 e7 8f be
       0.018473536 0.2904291 0.16819999 -0.28106236
000160 64 de 49 3e fe 53 d1 be 0a b2 04 3e 5a c3 a2 3e
       0.19713742 -0.40884393 0.12958542 0.31789666
000170 f1 0d 88 be 44 89 d6 3e 0d 5a 67 3e 9e ba a4 3e
       -0.26573136 0.419016 0.22592945 0.32173628
000180 ff 30 0c be 16 45 8a bd 8e 8d 68 be 57 64 a8 bd
       -0.13690566 -0.06751458 -0.22710249 -0.08222263
000190 7c 0d 4f 3e 21 76 de 3e a8 6e 97 be aa 3c 50 3e
       0.20219988 0.434495 -0.29576612 0.20335642
0001a0 a2 3b b3 3e 93 94 1e be 12 56 cf bd 5e dc 34 bd
       0.35006434 -0.15486364 -0.101238385 -0.04415547
0001b0 a6 23 04 3d 2c f1 d2 3e 01 3c 82 3d 91 85 6b be
       0.03226056 0.41199625 0.06359101 -0.2300017
0001c0 f3 06 d1 bd 4c 36 b0 3d 15 75 3d 3e c4 58 09 be
       -0.102064036 0.08604106 0.18501695 -0.13412768
0001d0 ad 1c 94 3e 82 82 2d 3e 8f 80 b1 be 09 b4 c1 3d
       0.28928128 0.16944316 -0.34668395 0.09458167
0001e0 70 d7 59 3e d1 ec 00 be 22 2e 81 3e 7f a5 6f be
       0.21273589 -0.12590338 0.2523051 -0.23402975
0001f0 76 c2 37 3e 73 af ab 3e 2f 32 45 be b2 e4 a3 be
       0.17945275 0.33532295 -0.19257425 -0.32010418
000200 94 15 7d 3e e5 43 b4 be 7f 18 8a 3e 1c 15 a5 bd
       0.24715263 -0.3520805 0.26971814 -0.08060667
000210 d4 1e c1 3d 63 4a 0b 3e b1 b1 b2 be 0a 63 cf 3e
       0.09429708 0.13602595 -0.34901193 0.40505248
000220 e7 25 5b 3e 8a cb 80 bd 5e 28 03 bc 47 aa bd 3b
       0.21401177 -0.06288822 -0.00800523 0.005788121
000230 b9 1d 09 3e 3c a8 0a 3e e8 0c 8a be f7 cd 7a be
       0.13390245 0.13540739 -0.26962972 -0.24492632
000240 04 c9 98 3e ee 91 06 3e af 36 c4 3d ab 3b 76 3e
       0.29840863 0.13141605 0.095807426 0.24046199
000250 58 d9 87 3e 4e ba 09 3d f6 4e 2a bd ac e1 a0 bc
       0.26533008 0.03362494 -0.04157921 -0.019638859
000260 a4 90 10 3e 51 75 2b 3e 6a a3 8a 3e 04 d5 0f be
       0.14117676 0.16743971 0.270778 -0.14046103
000270 0c bb ae be df 6f 4b be 87 da 02 3e 52 e5 24 3e
       -0.3412708 -0.19866894 0.12778674 0.16103104
000280 af f9 97 3e a2 49 4c be 38 97 2d 3e c5 0f 0e 3e
       0.2968268 -0.19949964 0.16952217 0.13873203
000290 d2 2a 9b bb 74 b7 d4 bd 85 ef de 3e 28 d2 d7 3d
       -0.004735329 -0.103865534 0.43542114 0.10538131
0002a0 f7 de 54 bd 09 8e 61 be fe 86 5b 3d 8f ce e1 be
       -0.05197045 -0.22026838 0.053595535 -0.44102904
0002b0 49 bf 10 3e 49 ce 7f 3e aa cb 80 3e 16 9b 74 be
       0.1413547 0.24981035 0.25155383 -0.23887286
0002c0 21 97 af be b7 3c 0b 3e 17 19 8a 3e 13 a3 43 3e
       -0.3429499 0.1359738 0.26972267 0.19105177
0002d0 0a ad 83 bd 99 bf 5b 3b 61 49 21 bd 5b 03 c8 bd
       -0.06429489 0.003353095 -0.03937662 -0.09766265
0002e0 7b 56 33 3e a7 bf d7 3e 50 38 ca 3d 89 d7 bb 3e
       0.17513458 0.42138407 0.09874022 0.36687878
0002f0 28 7f 88 3e c4 8d 11 bc 60 1a 28 be bb d9 bd be
       0.26659513 -0.008883897 -0.16416311 -0.37080178
000300 41 e9 b5 3d e1 01 88 3e 58 8f a5 3e 35 d7 a9 3e
       0.0888238 0.26563933 0.32335925 0.33172002
000310 8b b7 4f 3e e6 0f 01 be 81 f3 5a 3d 05 2e 8d be
       0.2028486 -0.12603721 0.05345488 -0.27574173
000320 54 42 90 3e 4e dd 1c 3b 92 75 ae bd 0b 7f 87 3e
       0.28175604 0.0023935619 -0.085185185 0.26464114
000330 4e 20 23 be fe 28 83 3e 3c 07 a5 3d e3 48 6e 3d
       -0.15930292 0.25617212 0.080580205 0.05817498
000340 bf bd 94 be b9 57 94 bd 78 a6 bc bd f4 24 b4 3e
       -0.29051015 -0.07243294 -0.09211439 0.35184443
000350 d9 0a 07 be 13 63 7d bd 10 2c df be de 9f a9 3e
       -0.13187732 -0.061862063 -0.43588305 0.3312978
000360 4d 35 7f bd 9d 8d 9a 3e dc ba 9f be 24 95 fb 3d
       -0.06230669 0.30186167 -0.3119725 0.12284306
000370 7c 16 22 3e 9b 97 8a bd 2d 3a 00 bd 66 10 21 3e
       0.1582889 -0.06767198 -0.03130548 0.15728912
000380 5e 37 5e 3e 4c d7 93 3c 96 95 0f 3e 52 f1 32 be
       0.21700808 0.018046997 0.14021906 -0.17474869
000390 d7 d1 7a be 25 fd 3d 3e c7 44 5c be f8 f1 32 3e
       -0.2449411 0.18553598 -0.21510611 0.17475116
0003a0 e4 4c 9b bd b2 3f a2 be ba 2b 6a 3e bc 57 55 be
       -0.07583025 -0.3168922 0.22868243 -0.2083425
0003b0 1b 67 8f 3d b2 f6 03 be 7b 63 5d 3d 43 a4 8a be
       0.07002088 -0.12887076 0.05404995 -0.27078447
0003c0 58 f3 25 3e ab d3 52 3e 77 de 16 be 9a af 82 3d
       0.1620611 0.20588557 -0.14733301 0.063811496
0003d0 55 0a 59 3e b7 c6 78 3e 67 fd 84 bd 2d f9 e8 3d
       0.21195348 0.24294554 -0.06493645 0.113756515
0003e0 69 ce 8a 3d e7 a8 1b 3e 07 c4 13 3d ed d7 25 be
       0.06777651 0.1520115 0.036075618 -0.1619565
0003f0 5d e6 5e be c6 c5 b1 3e 71 b1 65 bd 39 a9 3d be
       -0.21767564 0.34721202 -0.056077424 -0.18521585

lin.gender.weight f4 [2, 1]
000000 45 14 b7 3d 2b b4 04 bd
       0.08939413 -0.032398384

lin.age.weight f4 [7, 1]
000000 a5 6e e2 bb 5a 56 16 3d 5a 91 52 bd 38 0f 95 3c
       -0.0069101625 0.036703445 -0.05140815 0.018195733
000010 d7 9f a6 3d 6c c3 87 bb c6 32 58 bb
       0.08135956 -0.004143169 -0.0032989248

lin.occupation.weight f4 [21, 1]
000000 0a cc 64 3d 53 33 99 3a ea 1d 03 3c d8 99 ba bc
       0.05585865 0.001168827 0.008002738 -0.022778437
000010 d6 8d 02 bd d6 b8 9a 3c 1e 85 db 3c 9a dd c1 bc
       -0.031873547 0.018886965 0.026796874 -0.023665238
000020 fb 85 6a 3b 68 79 bc 3d e7 12 eb bc dd dc af bb
       0.0035785425 0.09202844 -0.028695537 -0.005366905
000030 da c9 d3 bc 28 d8 21 bd a4 e3 1e bc 4f 45 24 3d
       -0.025853086 -0.039512783 -0.009697828 0.04010516
000040 ef d0 6b bc 9c ab d2 3c d3 41 62 bd eb a5 9f 3d
       -0.014393075 0.025716595 -0.055238556 0.07795318
000050 71 c5 94 bc
       -0.018160554

lin.item_id.weight f4 [3883, 1]
000000 c1 a1 48 3e f1 24 c5 3d 68 2c 5a 3d b7 3a b6 3b
       0.19592954 0.09626187 0.053265005 0.0055611986
000010 2d cb ed 3c 63 45 d9 3d 2d 1c a5 3d 09 b6 70 3b
       0.029027546 0.106089376 0.08062015 0.0036729595
000020 3f 2b 12 bd e1 2e 7a bc 36 38 33 3d 10 c6 65 bd
       -0.035685774 -0.015269966 0.04375478 -0.05609709
000030 3b 62 8a bd da cb 8f bd 01 2d 7b bd 5f d5 1e bd
       -0.06757017 -0.070213035 -0.061322216 -0.038777705
000040 d3 d8 db 3c 47 af 84 bd c9 f6 38 bd 9e 8c 8b bd
       0.026836788 -0.06478744 -0.045157228 -0.0681393
000050 a3 d9 04 bd b4 ee 80 bd a1 32 86 bd f8 cb 94 bc
       -0.032434117 -0.06295529 -0.065526254 -0.018163666
000060 eb ba 23 bc 6d af f9 bc e1 f7 77 bd 8e 13 61 bd
       -0.009993295 -0.030479157 -0.06053913 -0.05495029
000070 f9 04 3a bd a4 34 16 bd c4 06 51 bd 3c df 2d 3c
       -0.0454149 -0.036671296 -0.051031843 0.010612305
000080 56 db 83 bd 30 f5 90 3d 63 c4 43 bd 8c 2c 4f 3c
       -0.064383194 0.07078016 -0.04779471 0.012644898
000090 d1 60 0b bd 07 18 83 bd 3d ff bd bc 37 08 84 bd
       -0.03402788 -0.06401067 -0.023192996 -0.06446879
0000a0 8c 4d cc bc ac 0a 3c bd cd 72 33 bd 1d 25 78 bd
       -0.024939321 -0.045908615 -0.043810654 -0.06058227
0000b0 e5 db 53 bd 8e 6d 65 bd 83 70 ec bb 9e 4e 9c bd
       -0.05172338 -0.056012683 -0.007215561 -0.076321825
0000c0 11 0a 58 bd d4 d0 65 3d ac 36 91 bd 5c 2f 34 bd
       -0.052743975 0.056107357 -0.07090506 -0.043990478
0000d0 73 63 5f bd b7 c2 ac bd 02 2f 95 bd 3e 2e 97 bd
       -0.0545382 -0.084355764 -0.07284357 -0.07381867
0000e0 e8 0d 6c bd 0a a6 7f 3c 40 74 87 bd 71 91 92 bd
       -0.05763045 0.015603552 -0.0661397 -0.07156647
0000f0 a0 ae 57 bd 77 57 e1 bc 6a 87 75 bd 1e 30 75 bd
       -0.05265677 -0.027507527 -0.059943594 -0.05986034
000100 26 e5 80 bd 75 0c 23 bd dd 93 7e bd 95 ba 80 bd
       -0.062937066 -0.0398068 -0.062152732 -0.06285588
000110 d6 3b 2f bd 62 ff 25 bd af 28 33 bd 99 99 32 bd
       -0.042781673 -0.040526755 -0.04373997 -0.043603513
000120 7a 16 0c bc 61 7d 0a bd d6 2e 8e bd 17 86 8b bd
       -0.008550281 -0.033810977 -0.06942527 -0.06812685
000130 1d 1a 69 bd 51 ed 8a bd 7e 61 73 bd 86 45 88 bd
       -0.05690967 -0.06783546 -0.059419148 -0.066538855
000140 c6 92 81 bd 30 1a 8d bd 90 60 58 bd ef a6 4a bd
       -0.06326823 -0.068897605 -0.052826464 -0.049475607
000150 ce 8e 72 bd 15 a6 96 bd e4 ea 68 bd 0e fb 56 bd
       -0.05921822 -0.073558964 -0.056864634 -0.05248552
000160 94 15 99 bd 2a ac 79 bd 36 6c 73 bd 9b d2 8f bd
       -0.07474819 -0.060955204 -0.05942937 -0.07022592
000170 bc 53 8c bd 1b c3 55 bd 1c cc 77 bd da b2 80 bd
       -0.068519086 -0.05218802 -0.06049739 -0.06284113
000180 f4 25 ae bd 7f ce 60 bd 3a fb 1a bd a9 7f 02 bd
       -0.08503333 -0.05488443 -0.037837245 -0.031860027
000190 33 ef 85 bd 31 4c 72 bd 76 96 e4 3b be fc 2f bd
       -0.06539764 -0.059154693 0.006975944 -0.042965643
0001a0 58 f4 7e bd 6f d9 32 bd a0 12 62 bd dc 42 89 bd
       -0.062244743 -0.043664392 -0.055193543 -0.067022055
0001b0 7b 9d a8 3d 22 46 e2 3a 80 1e 42 bd fd ff 89 bd
       0.08233162 0.0017263333 -0.04739237 -0.06738279
0001c0 98 b7 8f bd dc 04 82 bd 4c 70 30 bd 1d ed 69 bd
       -0.070174396 -0.06348583 -0.043075845 -0.057110894
0001d0 6b bf 6d bd d6 8d 72 bd 69 b0 70 bd 49 f0 7c bd
       -0.05804388 -0.059217297 -0.058761988 -0.06175259
0001e0 3c 88 7c bd ea 75 15 bd e7 c7 32 bd 7f 4e 4a bd
       -0.06165336 -0.036489405 -0.043647673 -0.049391266
0001f0 f1 2c 93 bd c5 f1 60 bd 87 38 64 bd 4e 8e 6a bd
       -0.07186306 -0.05491807 -0.05571797 -0.05726462
000200 35 0f 85 bd 34 c6 5f bd 9e 6e 7d bd da 42 78 bd
       -0.06497041 -0.05463238 -0.06187307 -0.06061063
000210 ba 4f 1c bd 26 70 85 bd 98 7d 53 bd af 09 65 bd
       -0.03816197 -0.06515531 -0.051633447 -0.055917438
000220 34 e0 87 bd 3e c0 89 bd e4 62 85 bd 14 40 eb bc
       -0.0663456 -0.067261204 -0.065130025 -0.028717078
000230 ec ca 7a bd 06 e6 a9 bd 87 d3 0b bd 8f ec 80 bd
       -0.061228678 -0.082958266 -0.034137275 -0.0629512
000240 51 2b 66 bd 3a 95 89 bd 76 33 6b bd 21 27 88 bd
       -0.056193653 -0.06717916 -0.057422124 -0.06648088
000250 55 61 33 3c a5 08 e2 bc a1 09 67 bd 67 d3 f5 bc
       0.010948499 -0.027592013 -0.056405667 -0.030008031
000260 e1 b4 46 bd 3e b2 6c bd e9 56 cc bc 58 b3 63 bd
       -0.048512343 -0.057787172 -0.024943786 -0.055590957
000270 a7 ef 64 bd 77 3d 62 bd a7 51 74 bd d4 bf 02 bd
       -0.055892613 -0.0552344 -0.059648182 -0.031921223
000280 e9 8a 22 bd 65 b1 ad bd 07 61 31 bc 9b fe 15 bd
       -0.039683256 -0.08481101 -0.010826356 -0.036619764
000290 88 8c a1 bd 06 08 56 bd f5 03 99 bd 83 fc 94 bd
       -0.07888132 -0.052253745 -0.07471458 -0.07274725
0002a0 b6 0e 3d bd c9 19 72 bd 80 d6 72 bd 41 2b 5f bd
       -0.046156608 -0.059106622 -0.059286594 -0.05448461
0002b0 a6 f2 63 bd b5 bb 40 bd 0d 68 73 bd b0 35 84 bd
       -0.05565133 -0.04705401 -0.059425402 -0.064555526
0002c0 04 35 42 bd 18 7f 84 bd 8e 18 5f bd 77 f8 85 bd
       -0.04741384 -0.06469554 -0.054466777 -0.065415315
0002d0 e0 10 79 bd d8 36 5f bd d6 56 5b bd f8 46 4e bd
       -0.06080711 -0.054495662 -0.05354961 -0.05036065
0002e0 9d db 5c bd f7 f2 1c bd 5f a9 a4 bd 3f 56 6a bd
       -0.053920377 -0.038317647 -0.080401175 -0.057211157
0002f0 8e 5a d0 bd 98 1e 91 bd f1 ca 7f bd 02 92 3e bd
       -0.10173522 -0.070859134 -0.0624494 -0.046525963
000300 ee 24 56 bd 67 1b 3c bd c8 25 72 bd 15 f8 83 bd
       -0.052281313 -0.04592457 -0.059118062 -0.06443802
000310 25 57 88 bd 88 8d 49 bd 40 52 85 bd 34 7d 6b bd
       -0.066572465 -0.04920724 -0.065098286 -0.05749245
000320 94 a1 8d bd df d2 f3 bb 3c ba c7 bc f5 5b 18 bd
       -0.06915584 -0.0074409093 -0.024380796 -0.037197072
000330 8b b6 a8 bc 53 50 e1 3c fe 3c 3f bc 38 f1 58 bd
       -0.020594856 0.027504122 -0.0116722565 -0.05296442
000340 32 95 a4 bd 6a d3 20 bd de 38 6a bd ee 4e d3 3c
       -0.08036269 -0.03926412 -0.05718314 0.025794473
000350 b0 be 3f bd 97 1a 8b bc 63 12 d0 3a c7 e4 16 bd
       -0.046812713 -0.016980452 0.001587462 -0.036839273
000360 32 5f 0d bd e1 44 6a bd fe 09 a3 bd d7 65 d7 3c
       -0.034514613 -0.057194594 -0.0796089 0.026293678
000370 56 09 c2 3d f8 c4 a5 bb 5b 37 f4 bc 8c 3b 4f bd
       0.09474437 -0.005058881 -0.029811552 -0.050593898
000380 00 12 33 bd 6f 16 72 bd f3 6d 4b bd 8f c4 ae 3c
       -0.043718338 -0.059103426 -0.049665403 0.02133396
000390 02 04 f4 3a d5 0d 15 bc 95 f4 80 bc b4 46 f9 bc
       0.0018616917 -0.009097536 -0.015741626 -0.030429222
0003a0 2f 48 0f 3d 23 1a 73 3b 23 0a 27 bd 75 1c 89 bd
       0.03498095 0.0037094436 -0.04078115 -0.06694881
0003b0 ac 92 59 bd 1f 7a 3c bd 1e c0 82 bd 86 e5 2d bd
       -0.053118393 -0.0460149 -0.063843 -0.04245522
0003c0 bf 8a 65 bd f6 31 85 bd 30 9a 17 bd af 5b b7 3d
       -0.05604052 -0.0650367 -0.03701228 0.08953034
0003d0 08 af 26 3d 46 ce a1 bd 1c 3a e2 bc a7 14 67 bd
       0.040694267 -0.07900672 -0.0276156 -0.05641618
0003e0 b1 d0 88 bd 13 27 13 bd a4 30 6f 3d 09 a1 9a bd
       -0.0668043 -0.035925936 0.058395997 -0.07550246
0003f0 f1 24 80 bd 2c 45 81 bd 6e da 17 bd 7c 6c ee bc
       -0.06257046 -0.063120216 -0.037073545 -0.029104464

lin.genre.weight f4 [18, 1]
000000 4a 15 5b 3c 9b ca ca 3d 8a 25 0e 3e 30 0d bc bc
       0.013371775 0.09901925 0.13881508 -0.022955507
000010 83 ff 62 bc 58 ce a8 bc d4 ce c3 bd 83 62 e9 3a
       -0.013854864 -0.020606205 -0.09560934 0.0017805848
000020 42 48 a9 bd 6f bb 67 3d f4 ce 70 bd 55 ad 53 3d
       -0.08265735 0.056575235 -0.058791116 0.051678974
000030 69 22 4c 3d 32 55 ea bd 18 80 90 bd 62 21 a2 bd
       0.049837504 -0.11442031 -0.07055682 -0.079165235
000040 ea b0 c3 bd 76 b3 24 bd
       -0.09555228 -0.04021021

dnn.0.weight f4 [128, 80]
000000 3a 19 29 3d 95 c1 a5 3d 23 36 2d 3d 17 4c 75 bd
       0.041283824 0.080935635 0.042287957 -0.059887018
000010 9a 96 da 3d 5f 10 95 bd 4a d4 90 bd 8c 45 7c 3d
       0.10673256 -0.07278513 -0.07071741 0.061589763
000020 59 2c f0 bd 9d 58 c3 bc f1 10 a6 bc 29 2a d7 3d
       -0.11727209 -0.023845965 -0.02027175 0.10506088
000030 66 0e 48 bd fb 87 32 bd b0 9c a6 bc 60 46 7f bd
       -0.048841856 -0.043586712 -0.020338386 -0.062322974
000040 59 8f 26 3d d4 5d 44 bd 1d c4 d6 bd b7 58 06 3e
       0.04066405 -0.047941044 -0.104866244 0.1311978
000050 14 26 1b 3d 95 07 8e 3c 32 f2 9f bd 1f b7 fb 3d
       0.03787811 0.0173376 -0.07809867 0.12290787
000060 1b 4f a4 3a c1 28 3d bc 95 23 cd 3d 6c 6b e7 bd
       0.0012535782 -0.011545361 0.10016552 -0.11299786
000070 98 e6 8c bd 64 81 f4 3d 83 2f 14 3d 64 8f e7 3d
       -0.0687992 0.11938742 0.036178123 0.113066465
000080 59 74 a2 b9 62 f4 ab 3d 3b a3 58 bd fa 84 3b 3d
       -0.00030985734 0.08396222 -0.052890044 0.045781113
000090 99 a6 5b bd 70 29 04 3e 89 4f f7 3d 99 20 65 bd
       -0.053625677 0.12906432 0.12075717 -0.05593929
0000a0 79 14 00 bd 05 31 c9 3c 6a fa df bd b0 b4 16 bd
       -0.031269524 0.024559507 -0.109364346 -0.03679341
0000b0 b7 98 b3 bd 92 00 4d 3c 7e c0 f1 3d e2 4c 8c 3d
       -0.087693624 0.012512343 0.11804293 0.06850602
0000c0 09 37 b8 bd 39 ce 27 be 74 0b ca 3e e8 4b 4b be
       -0.08994872 -0.16387261 0.39461863 -0.19853175
0000d0 59 a7 6a 3c e1 fb 95 bd f4 b9 ee bd d6 e8 36 be
       0.014322125 -0.07323433 -0.116565615 -0.17862257
0000e0 91 b4 11 3e 19 7a ad 3d e8 91 4b be b5 12 91 3e
       0.14229037 0.08470554 -0.19879878 0.28334585
0000f0 95 bf 09 3e 34 d9 d9 bc 85 86 9f 3e c2 d9 a1 be
       0.13451989 -0.026592828 0.31157318 -0.3161145
000100 25 4a 2c bd f0 23 31 bc cf e0 70 3d 8d 95 45 3d
       -0.042062897 -0.010811791 0.058808144 0.048238326
000110 a7 8f f4 3c 82 ee f7 3d 08 72 89 3c 41 11 af 3d
       0.029853655 0.12106039 0.016778007 0.08548213
000120 27 5b 52 b9 5f 13 5d bd 59 e6 c8 3c ea f3 c1 bd
       -0.00020061118 -0.05397355 0.0245239 -0.09470351
000130 8d 3d e5 bd ac 40 c3 3c 56 64 86 3b c7 81 ad bb
       -0.111933805 0.023834549 0.0041013164 -0.0052950117
000140 95 43 a3 bd f2 af f4 bc c0 47 cd bc 1f 89 8d bd
       -0.079718746 -0.029869054 -0.025058627 -0.069109194
000150 9e 3e e2 bb 0e 06 09 3e 09 f7 f2 3a b1 65 04 3e
       -0.006904437 0.13381216 0.0018536757 0.12929417
000160 5c 9e 9a bc 78 e0 39 3d 10 d5 62 bd 4e 9d 43 bc
       -0.01887434 0.045380086 -0.055378973 -0.01193936
000170 0a 7a 8c 3a 86 b8 4a 3d b7 f4 d2 bb 9c a4 95 bd
       0.0010717523 0.04949238 -0.0064378637 -0.07306787
000180 79 f1 8e 3c 1a b6 e8 bd 4a f6 f7 bd 51 d1 86 bd
       0.017449128 -0.11362858 -0.12107523 -0.06582893
000190 5e c1 2a 3b a7 f1 fd 3c c4 b2 8c bb d5 65 af 3d
       0.0026055197 0.030999018 -0.0042937715 0.08564345
0001a0 4f 84 d6 3b 22 f0 ca bd ac a6 16 3e a0 12 82 3d
       0.006546534 -0.09909083 0.14712018 0.06351209
0001b0 89 fa 4d 3d 69 f3 a9 3d f4 ea 9b bd 0a c7 54 bd
       0.050287757 0.0829838 -0.07613173 -0.05194763
0001c0 9b de d5 bd e9 33 32 3d 3a 79 fa bd 5e ba 36 3d
       -0.10442849 0.043506537 -0.122301534 0.044611327
0001d0 ff 77 72 3d cd a9 b3 bd 3c 35 43 3c 6b 8d 03 3b
       0.05919647 -0.08772621 0.0119145475 0.0020073305
0001e0 76 79 c0 3d 97 fa 61 bc d0 79 5b bb ab 39 87 3b
       0.09398167 -0.013792655 -0.0033489354 0.0041267476
0001f0 f8 91 12 3e 14 aa b9 bd 22 40 d8 bd 95 b9 41 3d
       0.14313495 -0.09065643 -0.10559107 0.047296125
000200 f9 93 3f be e8 af 60 be 01 a8 e3 3d 96 b3 27 be
       -0.18708791 -0.21942103 0.111160286 -0.163771
000210 44 21 83 3d 37 ce 87 be 33 6f 41 bd 71 a5 d2 bd
       0.06402829 -0.26524517 -0.04722519 -0.10285462
000220 6c d2 11 be e9 49 c4 3e ad c1 2f be b8 67 32 3e
       -0.14240426 0.3833764 -0.17163725 0.17422378
000230 53 e8 07 3e ae 92 6d 3e 2d 93 ac 3e db e5 61 bd
       0.13272218 0.23200485 0.33706036 -0.055150848
000240 16 65 9e bd 08 19 5f bd e0 7e 07 3e f1 01 93 bc
       -0.07734124 -0.05446723 0.13231993 -0.017945262
000250 ab 3d 0e 3d c3 7b f4 ba 5b ab a5 bd dd 08 ed 3c
       0.03472678 -0.0018652607 -0.08089324 0.02893489
000260 8e 79 fd 3d a0 1a b4 3d 6f d4 c9 3b 5e b1 46 3d
       0.123767 0.08794141 0.0061593573 0.048508994
000270 99 9d 00 3d 2a db f7 bd b3 5f 85 bd 24 46 9d 3d
       0.031400297 -0.12102349 -0.06512394 0.07679394
000280 c3 b8 5b bb a8 f7 68 bd a3 3c 9a bd c2 d2 ef bd
       -0.0033526875 -0.05687681 -0.07531097 -0.11710121
000290 a6 f3 81 bd 83 ca 02 3d a7 26 97 bd 48 a2 38 3d
       -0.063453004 0.03193141 -0.07380419 0.04507664
0002a0 40 62 c9 bc 77 c7 48 bd ae 32 5e 3d 90 c3 fa bd
       -0.024582982 -0.04901835 0.05424755 -0.12244332
0002b0 94 13 7c 3d 3f e7 2d 3c 36 56 01 bd c8 e2 b9 3c
       0.06154211 0.010614215 -0.031576358 0.022691146
0002c0 ad 2d 89 bd 99 ad 00 3e a5 14 c9 bd df 0d 85 3d
       -0.06698165 0.12566222 -0.09818391 0.06496786
0002d0 c3 51 a6 bd e9 c4 81 bb d8 aa 23 3b d6 dc 08 bd
       -0.081210636 -0.003960241 0.0024973657 -0.03341373
0002e0 d2 5b 53 3b aa ba 83 bc 8a b6 c7 3c 22 54 0d bd
       0.0032250774 -0.01608022 0.024379034 -0.034504063
0002f0 af 24 60 3d ee 56 4a 3d 24 67 fd bd 01 0a 38 bd
       0.054722484 0.04939931 -0.12373188 -0.044931415
000300 83 24 cb bd 7e d5 5b bd 03 61 f8 bd 4d 47 56 3d
       -0.099190734 -0.0536704 -0.121278785 0.05231409
000310 43 7d 5c 3d 8d fb 66 bd 86 60 19 bd fc 53 c8 3d
       0.053830396 -0.05639224 -0.037445568 0.09781644
000320 7b 4c 35 3c 5e 31 62 bd 37 18 6a 3d 7e fd 84 3a
       0.011065598 -0.05522286 0.057152 0.0010146347
000330 ee 6b 81 bd 2d 0b 60 3d 07 ba 96 3d cd a3 11 3e
       -0.06319414 0.054698158 0.07359701 0.14222641
000340 f5 28 a0 3c 78 9f 7d be 79 18 35 3e ac e9 80 be
       0.01955078 -0.24767864 0.17685117 -0.25178277
000350 fa 64 27 bd f0 97 96 bd 76 0e 0a be 2e 2a b2 bd
       -0.040867783 -0.073531985 -0.13482079 -0.086994514
000360 71 f5 27 3d 78 7d 72 3e a1 97 5d be 9c ef 05 3e
       0.041005556 0.23680675 -0.21639873 0.13079685
000370 00 8e 85 3e f1 af 9c 3d 9c 12 8b 3e 7a ea 56 be
       0.260849 0.07650746 0.27162635 -0.20987883
000380 cf 85 4d 3d 30 3b fa 3d 78 2e 13 3d f3 13 74 bc
       0.050176438 0.1221832 0.035932988 -0.014897334
000390 dc 07 50 3d e5 a6 23 3d ab 4f 0a bd 21 86 6d 3d
       0.050788745 0.039954085 -0.033767384 0.057989243
0003a0 cd d4 7d bd 70 a1 e4 3c 42 19 d7 bc 6e 49 93 bd
       -0.06197052 0.02790901 -0.026257161 -0.0719174
0003b0 68 b2 05 3e 9d 4a 64 bd f3 99 13 3c b4 16 9f 3d
       0.13056338 -0.05573522 0.009008872 0.07768002
0003c0 a7 f0 a2 bd 46 a1 2c bd 89 ad 05 3d 43 7e 36 bd
       -0.07956057 -0.04214599 0.0326362 -0.044554006
0003d0 52 29 7e 3d 6c 9e ef 3d 94 80 4a 3d 5b 33 a0 bd
       0.062051125 0.117001384 0.049439028 -0.07822295
0003e0 2d 9b 91 bd 87 2c 2d 3d 43 f1 7b bd 94 96 dc 3d
       -0.071096756 0.042278793 -0.061509382 0.10770908
0003f0 b1 a4 37 3d db 8e e2 bc 7e 3c c9 bc 3b 19 3c 3c
       0.044834796 -0.02765601 -0.024564978 0.011480625

dnn.0.bias f4 [128]
000000 cb 57 19 bd d0 b8 de bd e1 4a 7c 3d 54 71 3a bd
       -0.03743724 -0.10875094 0.061594848 -0.045518234
000010 85 cf 8a bd 59 4f 91 3d 50 b4 91 3c e7 d7 33 3d
       -0.067778625 0.070952125 0.017786175 0.043907072
000020 48 09 a0 bd 60 6e b4 3d 93 f9 0e bd c6 65 44 bd
       -0.0781427 0.08810115 -0.03490598 -0.04794862
000030 f1 11 56 bd a7 5c be bc ee 3d a6 bd c6 a8 90 bd
       -0.052263204 -0.02323754 -0.08117281 -0.07063441
000040 00 f0 85 bd 76 33 d9 bc 3e d9 e5 3c 17 d1 55 3d
       -0.06539917 -0.026513796 0.02805769 0.052201357
000050 d6 bc 22 3d ee 94 1b bd dc 4e a2 3d 67 8e 96 bd
       0.03973087 -0.037983827 0.079251975 -0.0735138
000060 bb e6 24 bd 40 1f 6a bd af 28 e5 3c 26 6c 2c bd
       -0.040259104 -0.05715871 0.027973501 -0.042095326
000070 8b 29 8a 3b a2 32 48 bd 6d dc b9 3c 8c 4a 65 bc
       0.004216378 -0.048876412 0.022688115 -0.013994824
000080 98 32 ec 38 b8 5e 99 bd 78 33 8a ba 7d 16 49 bb
       0.00011262781 -0.07488769 -0.0010543903 -0.003068357
000090 c9 a8 80 bd 56 bc dc 3d 5a 28 67 bb bd 65 82 bb
       -0.06282193 0.1077811 -0.0035271854 -0.0039794133
0000a0 77 e5 63 bd 2d 6a a3 bc ed 2a 38 3d aa 5b d0 bc
       -0.055638757 -0.01994809 0.044962812 -0.025434334
0000b0 4d d4 45 bd ef 08 c9 bd 0f 41 c6 bd 31 37 1d bd
       -0.04829817 -0.09816157 -0.09680378 -0.038382713
0000c0 47 b3 91 bd 24 87 78 3b b8 c4 3e bd 79 d2 36 bd
       -0.071142726 0.0037922347 -0.046574324 -0.044634316
0000d0 00 96 9f 3d ac 44 b2 3d 75 74 36 3c a3 b7 77 3d
       0.07792282 0.08704504 0.011136164 0.060477864
0000e0 18 72 9a 3d 18 9b 96 bd e1 4b 73 bd 8b 4f b1 bd
       0.07541293 -0.073538005 -0.059398536 -0.0865775
0000f0 c5 23 48 3d 81 42 6f 3d d2 ef f4 3c fc 86 3c bd
       0.048862237 0.058413032 0.029899511 -0.04602717
000100 5a 98 59 bd e4 d9 d5 bd c2 8d 5e bd a6 34 c1 bd
       -0.05312381 -0.1044195 -0.05433441 -0.0943387
000110 1c 9b eb 3c 65 ed 88 bd 9c f6 02 bd 39 c6 99 bd
       0.028760485 -0.066859044 -0.031973466 -0.07508511
000120 70 b0 3c bd 46 b5 6e bd d6 2b 28 bc 11 dc 29 3d
       -0.0460667 -0.058278345 -0.010264358 0.041469637
000130 4d dc 86 3d 56 49 c7 3c 7d a7 e0 3a 13 f0 84 bd
       0.06584988 0.024326961 0.0017139759 -0.06491103
000140 9e f2 21 3d 58 f7 b9 bd 8b 64 74 bd 9a 94 0d 3c
       0.03953802 -0.0908038 -0.059666198 0.008641386
000150 52 dc a9 bd 1e ab 2c bd 70 56 9e 3b c3 46 6e 3d
       -0.08293976 -0.042155378 0.0048320815 0.058172952
000160 cf f9 98 3d 63 d0 a1 bd 08 5d d5 bc 06 27 96 3d
       0.07469522 -0.07901075 -0.026045337 0.07331662
000170 af 84 49 3d f5 19 bd 3c 0d c2 64 bd 70 fa a5 3d
       0.049198803 0.023083666 -0.055849124 0.08104408
000180 4a 49 99 bd 18 cf 96 3c a8 68 27 3a 2e ec c2 3c
       -0.07484682 0.018409297 0.00063861394 0.02379426
000190 0b 0f 4c 3d 60 52 9e bd bc 42 9b 3b 82 32 85 3d
       0.049819034 -0.077305555 0.00473818 0.06503774
0001a0 8a a7 a4 bd 06 d2 9b 3c 79 55 b8 3c b1 10 ef bc
       -0.08039768 0.019021045 0.022501694 -0.029182764
0001b0 46 83 c3 3c 6c 7c 39 3d 07 e2 65 3d e1 10 92 bd
       0.023866307 0.045284674 0.05612376 -0.07132126
0001c0 b5 61 4b 3d 1e 06 da bd de fb db 3d fe 0d bb 3d
       0.049653728 -0.10645698 0.10741399 0.09133528
0001d0 eb 12 ef bc d9 7b 4d 3c 41 af df 3c e4 86 bb bc
       -0.029183825 0.012541735 0.027305247 -0.02289147
0001e0 a1 3c 07 bc 1d f3 74 bd a9 22 b9 bc 3d 70 9a 3d
       -0.008254201 -0.059802163 -0.022599535 0.07540939
0001f0 e8 03 93 bd 9f 54 dd 3b a4 cc 91 bd 8b 6e 0b 3c
       -0.071784794 0.0067544724 -0.0711911 0.008510242
