Data/artifacts/deepfm_pytorch.pth (torch, 347762 bytes, 15 tensors)

emb.gender.weight f4 [2, 16]
000000 c6 28 c4 be c0 a7 6c be 3e a3 cd 3e 33 63 04 3f
       -0.38312358 -0.23110867 0.40163606 0.51713866
000010 93 0b c1 3e 46 b2 07 bf 0d 2f e2 be 30 37 34 be
       0.37704143 -0.530064 -0.44176522 -0.17599177
000020 52 81 fa be 2d da cc 3e a5 16 30 3e f6 79 b9 bb
       -0.4892679 0.40010205 0.17196138 -0.005660291
000030 cc d9 13 be 26 9d 1e 3e b9 f1 06 3f d1 dd 8f 3d
       -0.14438552 0.15489635 0.5271259 0.0702473
000040 0a d7 95 3e 5b 22 e9 3e 5d 10 6c 3e fd 5a bd 3b
       0.29265624 0.45534024 0.23053117 0.005778669
000050 d0 b7 e5 bd e9 14 aa 3e 88 9c b1 3d bb 23 86 3e
       -0.112167 0.33219078 0.08672434 0.26199135
000060 db 18 84 be 4c 1a 47 bd 74 be 8c 3e 66 e3 6e be
       -0.25800213 -0.048609063 0.27489054 -0.23328933
000070 2c e8 e2 be c9 39 18 bf 9b b9 05 be 68 0b a7 3e
       -0.44317758 -0.59463173 -0.13059084 0.3262589

emb.age.weight f4 [7, 16]
000000 a2 ad 97 be 6a f4 18 be 92 ba 76 be b7 11 fe bd
       -0.2962466 -0.14936987 -0.24094608 -0.124057226
000010 b8 21 9d be f6 71 52 bd 99 1e 45 3e ec 02 d7 be
       -0.30689788 -0.051378213 0.19249953 -0.41994417
000020 dd ee b2 be 3b b1 e3 3e 27 fa e0 bc 8a 9d 6d be
       -0.34947863 0.44471154 -0.027463032 -0.23204628
000030 05 79 a2 be 05 c8 eb 3e 59 10 d2 bd ea 3f 4e 3e
       -0.31732956 0.4605104 -0.10257024 0.20141569
000040 7b 98 b6 3e c3 bd c8 3d 60 5b f6 be 69 7c 19 bc
       0.35663208 0.09801819 -0.4811659 -0.009368041
000050 63 ad d4 be 8c 13 f7 be b2 b0 d0 be 4a 18 60 bc
       -0.41538534 -0.482571 -0.40759808 -0.013677666
000060 31 69 9c be 2f eb 53 be 38 d2 fc 3d 8a a3 8e 3e
       -0.30549005 -0.20695184 0.123447835 0.27859145
000070 17 f6 31 be 50 55 b1 3e 8a 83 b8 be de c6 40 3e
       -0.17379032 0.346354 -0.36037856 0.18825862
000080 99 68 9d be 6f fe 4f 3d 2b ba ef be 49 8c ea 3e
       -0.30743864 0.050779756 -0.46821722 0.45810154
000090 f4 24 d0 3e 9e 69 40 3e d4 be a1 3e af 60 6c 3e
       0.40653193 0.1879029 0.31590903 0.23083757
0000a0 9e 06 d8 3e ca e1 e6 bd 08 24 2d 3e d7 84 cd be
       0.4219255 -0.112735346 0.16908276 -0.4014041
0000b0 ae 0f 03 be 66 52 3b 3d 0b 19 27 be 9a c3 97 3e
       -0.1279895 0.04573288 -0.16318147 0.2964142
0000c0 ea 05 89 3e 3f f1 f0 3d 0f 97 55 be ea f1 2e bd
       0.26762325 0.11764764 -0.20858406 -0.042711176
0000d0 e0 e3 4f bd 97 b9 c6 bd e1 3b dc 3d 62 ba 59 3e
       -0.050754428 -0.09703367 0.107536085 0.21262506
0000e0 fe fa 96 3e 87 62 2f be 0e b3 a9 be 9c 0a 8c bc
       0.29488367 -0.17127429 -0.3314442 -0.017094903
0000f0 a4 8f ac be 2c ba 7c 3e 80 82 e6 3b ac 43 48 be
       -0.3370334 0.24680394 0.0070346 -0.19557065
000100 bd 38 90 be 03 d8 0b be dc c8 13 be 22 e7 ed 3d
       -0.28168288 -0.1365662 -0.1443209 0.11616351
000110 4f 16 14 3e e9 c9 d5 bd 6c f4 82 3e 5e c6 18 be
       0.14461635 -0.10438902 0.25577104 -0.14919421
000120 4c e4 df 3e 4d f3 3d bd 49 9f fb 3c 20 0e 2b 3e
       0.43728864 -0.046374608 0.030715602 0.16704607
000130 01 90 b6 3d 74 60 67 3e a5 ef 94 be cd 6d 1c 3e
       0.08914185 0.22595388 -0.29089084 0.1527626
000140 90 d7 84 be d9 de a8 bd 68 07 27 3d 65 94 b0 3e
       -0.2594571 -0.0824563 0.040778548 0.34488216
000150 8c e8 38 3e 47 b3 07 be ae b5 81 3d ef df 9f 3e
       0.1805746 -0.13251983 0.06333481 0.31225535
000160 2f a8 4a be b1 0c b7 be 01 6c d4 bd 1f 41 10 3f
       -0.1979072 -0.3575187 -0.103721626 0.56349367
000170 ba 29 c0 bd 33 86 c6 be a4 a7 c3 3b 3e a2 32 be
       -0.09382959 -0.3877426 0.005970912 -0.17444703
000180 68 1e 0e 3d 2c dd af 3e 8a 36 5d 3e e5 33 f1 be
       0.034696966 0.34348428 0.21602836 -0.47109905
000190 a5 26 4d bd 06 de b4 3e f6 e1 be be 31 47 d7 bd
       -0.050085682 0.3532564 -0.3728177 -0.105116256
0001a0 3f f3 bf 3e 49 4f b4 3e f8 26 da bd 58 f4 b2 bb
       0.3749027 0.3521674 -0.10651964 -0.005461257
0001b0 dd 9f c1 3d 64 61 51 be a6 65 df 3e bb ae b9 3e
       0.094543196 -0.20447308 0.4363224 0.3626612

emb.occupation.weight f4 [21, 16]
000000 c9 a5 6d 3d c2 77 75 be 49 e6 95 bd b5 9d 45 be
       0.058019433 -0.23971465 -0.07319314 -0.19298442
000010 56 a1 ac be bc 04 0c b8 bb 47 d7 3d 27 95 fd 3c
       -0.3371684 -3.338301e-05 0.105117284 0.03095491
000020 8c ba 05 bd 81 59 95 bc cd 16 6e 3d 74 ac a8 3d
       -0.032648608 -0.018231155 0.058127213 0.08236018
000030 68 7c b5 3e 66 38 8c 3e 50 ca 91 3e 59 ef 59 3e
       0.35446477 0.2738678 0.28474665 0.2128271
000040 6c a3 07 3e 8b 34 1f 3e 4d 17 8c 3c 65 27 8e 3d
       0.13245934 0.15547387 0.017100954 0.06941108
000050 90 92 eb 3c 09 f1 3d 3e a2 78 22 be 6e cf 8c 3e
       0.02875641 0.18548979 -0.1586633 0.27502006
000060 57 7d cd 3e 03 d1 50 3e 71 33 d4 3d c1 14 d9 3e
       0.4013469 0.20392232 0.10361374 0.42398646
000070 4d d7 ae 3e 0f 7d 53 3e 15 f5 61 bc 99 dc 22 bd
       0.34148636 0.20653175 -0.013791342 -0.03976116
000080 4c 37 15 be 92 1a a6 bd 17 41 3c be 54 18 53 be
       -0.14571875 -0.08110537 -0.18384205 -0.20614749
000090 78 d3 dd bd 0b 0a e7 3d 9c 3b 7e bd 4f 46 92 be
       -0.1083135 0.112812124 -0.062068567 -0.28569266
0000a0 c0 6b ce 3d 3c 77 76 3e 1c 4c 8c 3e 1d a7 a8 3e
       0.100791454 0.24068922 0.27401817 0.32939997
0000b0 ea 8d 82 bd 79 e1 3f bd 62 55 75 3d de e3 3d 3e
       -0.06374724 -0.046845887 0.05989588 0.18543956
0000c0 22 0d 00 be c1 ad 43 be 51 e4 8b 3e c3 3d 9d be
       -0.1250501 -0.1910925 0.2732263 -0.30711183
0000d0 5e 83 8b 3e bc 4a 7d be 09 08 65 bd 55 58 29 be
       0.27248663 -0.2473554 -0.055915866 -0.16537602
0000e0 0b ae 1d 3e a0 dd a3 bd 24 4d 1a be 00 fb ca bd
       0.15398423 -0.08001256 -0.1506849 -0.09911156
0000f0 f9 e7 d4 bd f4 7e 98 be 09 9f 1b be 9f 60 f0 3d
       -0.10395808 -0.29784358 -0.15197386 0.11737179
000100 02 ae d9 be ff 28 19 3e 6c 63 a0 3e 46 dd 85 be
       -0.4251557 0.14957045 0.31325853 -0.2614538
000110 14 ef 57 3d d6 6a eb bb 34 3f bf 3d 2f 10 79 3e
       0.052718237 -0.0071843667 0.09338227 0.2432258
000120 0b 5b a6 be 1f 59 33 bd 3b 0d c5 be 7a 26 ff bc
       -0.32491335 -0.043786164 -0.38486657 -0.031146277
000130 bc a2 a0 be 80 70 b9 3d ec f7 6c be 63 73 3f 3e
       -0.31374156 0.09054661 -0.2314145 0.1869636
000140 5b b3 ae 3d 29 24 41 3e d6 1b 9b 3e df 9a 5c 3e
       0.08530303 0.1886145 0.30294675 0.21543454
000150 9f 94 cb be 7a 99 46 be 14 96 57 3e 47 ca 75 be
       -0.39761826 -0.19394484 0.21053344 -0.24002944
000160 4b 82 5c 3e 56 ee a5 3d 60 a6 c8 bc 46 5b 39 3e
       0.21534078 0.081020996 -0.024493396 0.18101224
000170 ff 08 53 3e f0 c2 a4 3d 39 8b 84 bd e4 b8 3b 3e
       0.206089 0.08044994 -0.06471867 0.18332249
000180 b5 cd f8 3d 01 1b 07 bc 5e 6a 9f bd 48 ea a1 bd
       0.121486105 -0.008246184 -0.0778396 -0.07906014
000190 d7 6a 57 be bc 1b d6 3d 8c c0 3b 3e ae 01 19 bd
       -0.2103685 0.10454509 0.1833517 -0.037355117
0001a0 42 9e ec bd e1 2f 51 3e 0f 8b bb 3e db 6d ce bd
       -0.11553623 0.2042842 0.3662953 -0.10079547
0001b0 0a 64 f0 3d 2e 2a c4 3e 74 3b 41 3b 58 70 e1 bd
       0.11737831 0.3831343 0.00294849 -0.11007756
0001c0 77 1a f1 bc 5a 2f 2d bc 61 e3 8a 3e b8 32 08 be
       -0.029431565 -0.0105703715 0.271266 -0.13300598
0001d0 da 36 11 3e 72 ef cb be d8 24 97 bd 73 fe 84 3e
       0.1418108 -0.3983112 -0.07380074 0.2597538
0001e0 d9 79 9e 3e bf 71 a9 bd 36 1f 96 bd 8b c2 c4 3e
       0.30952337 -0.082736485 -0.07330172 0.38429675
0001f0 23 5b 29 3e 7f 87 3e 3e 27 3c 4f be 80 0d 86 3e
       0.16538672 0.18606375 -0.2023779 0.26182175
000200 af 2f 3c 3e e5 52 88 bd 46 40 b2 3e 12 5c 9e be
       0.18377565 -0.06656436 0.34814662 -0.3092962
000210 53 12 68 3e 24 4b 72 be cb 7f e3 3d 59 d7 bf be
       0.2266324 -0.23661476 0.11108359 -0.37468985
000220 06 1d 73 3e 4f db 00 be 1a 73 91 3c 0c 85 c7 3e
       0.2374154 -0.1258366 0.01775508 0.38968694
000230 93 8b f0 bd 15 d3 82 bd f5 95 c4 3d c4 85 5c 3e
       -0.11745372 -0.06387917 0.095989145 0.21535403
000240 07 47 0b be 1b e8 be be 46 54 bb 3d ee 2d 83 be
       -0.13601314 -0.37286457 0.09146933 -0.2562098
000250 47 cf a4 be a1 6f 45 bd 75 48 9b be 19 06 4f 3d
       -0.3218939 -0.04820216 -0.30328718 0.050542925
000260 9f c3 e9 3c 3c e8 c0 bc 45 9c 9d 3d 4b dd 8c 3d
       0.028535662 -0.023548238 0.07695822 0.06878146
000270 75 98 8a be f7 ba 5c be b6 69 ab be 5f 04 92 bd
       -0.2706944 -0.21555696 -0.3347909 -0.0712974
000280 c5 5c 04 bd 6b 26 75 3c 39 38 98 3e 13 b6 61 be
       -0.032315034 0.014962773 0.29730394 -0.22042112
000290 b5 39 c4 be e9 c0 2e 3d ca 4d 32 be 6e ac 0c be
       -0.38325277 0.042664442 -0.17412487 -0.13737652
0002a0 8a 0c 11 3e a1 b0 bc bd 60 4a 71 be fa 44 43 be
       0.1416494 -0.09213377 -0.23563528 -0.19069281
0002b0 93 c9 34 be 6c 51 55 be 19 22 47 3e 7d d7 d6 3d
       -0.1765502 -0.20831841 0.19446601 0.1049032
0002c0 fe 72 30 bd bc 85 d5 3d cd 34 1c be 9b 3c 18 be
       -0.043078415 0.104258984 -0.15254517 -0.14866869
0002d0 e1 7d 36 be 33 0f aa bd 6f 77 82 be 60 5e 08 3e
       -0.17821456 -0.0830368 -0.25481746 0.13317251
0002e0 91 3a b9 3e 0a e7 cb bd 74 c6 84 3e bb 43 81 3e
       0.36177495 -0.099561766 0.25932658 0.25246987
0002f0 43 00 9d 3e 2f 42 46 3e 56 db 5f be d1 6c 00 be
       0.30664262 0.19361185 -0.21861014 -0.1254151
000300 ac f9 72 3e f3 2e 38 3d 7f c8 8f 3d fd 84 3f 3e
       0.23728055 0.04496665 0.070206635 0.18703075
000310 9d 6d bc bc cb 7e 69 3e ce 08 f6 bd db d1 4f bd
       -0.023001486 0.22802274 -0.12013398 -0.050737243
000320 63 d7 91 be 17 ba 48 bc f7 06 88 bd a9 69 52 be
       -0.2848464 -0.0122513985 -0.066419534 -0.20548119
000330 f5 c3 d5 3e 02 0a be bd e6 ae 5a 3d 6f 1e ca 3d
       0.41751066 -0.092792526 0.053389452 0.09869086
000340 5e c7 bf bb ed 1a cf 3d 3e 28 da bd b7 4d 2e 3e
       -0.005852624 0.101125576 -0.10652207 0.17021833
000350 c9 9c 80 3d 08 ba 58 be f8 4d ad be fd 5b af bd
       0.062799044 -0.21164715 -0.33848548 -0.08562467
000360 44 89 c6 bc 4c 69 b7 3e 2a 43 de 3d 27 ba 44 3e
       -0.024235375 0.35822523 0.10852654 0.19211636
000370 84 a1 56 bd 43 09 6a be 08 66 ab be a9 3f 2c 3e
       -0.052400127 -0.22855096 -0.3347628 0.1682116
000380 c0 38 84 be 4c 3d 5a 3e 89 a5 37 be 40 05 d5 3d
       -0.25824547 0.21312445 -0.1793424 0.10401392
000390 06 c3 69 be f4 36 66 be 16 6a 12 be e7 73 e4 3d
       -0.22828302 -0.224819 -0.14298281 0.11154919
0003a0 82 e1 02 be c4 61 e9 bd 42 7d 32 be 45 b9 2c 3e
       -0.12781337 -0.113956004 -0.17430595 0.1686755
0003b0 de 9e 89 3e e6 69 bb 3e 67 f5 06 be f1 29 93 3e
       0.2687902 0.36604232 -0.13179551 0.28742936
0003c0 bb 03 17 be 88 75 50 bb 25 b8 20 3d 8c 5f 79 be
       -0.14747517 -0.0031808335 0.039238114 -0.24352854
0003d0 2c 13 76 3d c7 51 78 be d5 df a4 3d 5b 83 88 be
       0.060076877 -0.24249946 0.08050505 -0.26662716
0003e0 b9 e7 9b 3e 6f 4b dc bd 0d 7b 5b 3e c5 9a 37 3e
       0.30450228 -0.10756575 0.21433659 0.17930134
0003f0 ec e8 ff 3d 20 8d 87 3c 3b 14 01 be a5 f6 53 be
       0.12495598 0.016546786 -0.12605374 -0.20699556

emb.item_id.weight f4 [3883, 16]
000000 28 cc 0f 39 e1 4b 0e 3e f1 5d 17 be c3 2e 4b 3e
       0.00013713597 0.13896133 -0.1478193 0.19842057
000010 0d 70 05 3d 8b 8e ce bd 59 9b 50 bd b1 a2 e1 3d
       0.032577563 -0.10085782 -0.0509294 0.11017359
000020 64 ed fb 3d e6 1c 09 be 0c 44 29 3e 78 b7 48 be
       0.12301138 -0.1338993 0.16529864 -0.19601238
000030 6b ff 59 be a0 7e 9f bc 12 9c bc bd 29 e6 0a 3e
       -0.2128884 -0.01946956 -0.092094555 0.13564362
000040 58 7c d1 3d e1 e0 9b 3d a6 bf ed bc 37 ea 4c 3c
       0.10228795 0.076112516 -0.02902205 0.012507013
000050 8c 08 a8 3c 08 90 96 3d 21 87 8e bc 77 bf a2 3d
       0.020511888 0.073516905 -0.017398419 0.07946675
000060 69 cb 34 3d 5a b2 6a bd 87 cd 38 3d dc d6 72 bc
       0.0441393 -0.057298996 0.04511788 -0.014821734
000070 bb 56 99 bd 31 85 61 bd 95 a7 3b bc 11 6a d2 3b
       -0.07487246 -0.05505866 -0.011453529 0.0064213355
000080 4c 1e 3a ba 2f 0f 43 3d e4 10 25 bd df fc 1a 3d
       -0.00070998515 0.047621902 -0.04029931 0.037838813
000090 bc 7a 8e 3b 1a 5c 81 bc 14 e2 57 bd 8a 98 9d bb
       0.004348127 -0.015790988 -0.05270584 -0.004809444
0000a0 67 5b 1e bd 20 90 70 bb 19 85 04 bd 57 c7 6b bc
       -0.038661387 -0.0036707 -0.032353494 -0.014390788
0000b0 59 6e 9f bd 14 c3 27 3b f4 7c 25 bd f6 60 31 bb
       -0.07784719 0.0025598453 -0.040402368 -0.002706585
0000c0 dd fe 48 bd 2a 27 d3 bc 66 eb 9b 3c 48 2a 15 3d
       -0.04907118 -0.02577551 0.019033145 0.036417276
0000d0 b7 5a 26 3c 59 c2 05 bd 99 7f 00 3c 6b be 64 3c
       0.010153464 -0.032656047 0.007842922 0.013961415
0000e0 76 2a 01 bc 61 39 65 3d dd 96 d3 3c f4 d4 11 bc
       -0.007883659 0.055962924 0.025828773 -0.00890087
0000f0 73 50 0e bc 78 f7 93 3d 2b e1 dd ba a0 d0 36 bc
       -0.008686173 0.07224935 -0.0016928067 -0.0111581385
000100 ec 7e 3f be 61 7f 3d bd 30 f4 64 3c 5f 09 5c 3d
       -0.1870076 -0.046264056 0.013974234 0.053719874
000110 c5 d1 ac 3d 64 93 80 bd 9b b6 d7 bc ee ce a2 bc
       0.08438448 -0.062781125 -0.02633219 -0.019874062
000120 e7 f7 ac 3c 6d e1 f5 bc 8a 95 cd bb 72 a8 fe bb
       0.021114303 -0.030014718 -0.00627393 -0.007771545
000130 f8 95 08 3c 82 7e 5e 3c 1e 0e 9d 3c ab f9 e1 3c
       0.008336537 0.0135799665 0.01917177 0.027584871
000140 51 fa f3 3c 94 ac c2 3d 42 ea fe bd 47 52 03 3d
       0.029782446 0.09505573 -0.12447025 0.032060888
000150 7b c6 58 bd 15 e1 58 3c 34 07 ef bd ef b5 bf 3d
       -0.05292366 0.0132372575 -0.11671296 0.09360873
000160 05 79 5b 3d fb 04 93 bd 82 ee c9 3d ba 84 e7 bd
       0.05358221 -0.07178684 0.09859945 -0.113046125
000170 3f f1 67 bd d6 64 51 3d 3e a4 a0 bd 20 f2 9f 3d
       -0.056626555 0.051121555 -0.07843827 0.078098536
000180 fc 6c 0c be e8 ea c1 bc 0c f1 9e bc 21 5a d2 3d
       -0.13713449 -0.023671582 -0.01940205 0.10271097
000190 86 55 e3 3d 19 1b 5c 3c 0e e9 b9 bd 8f e0 53 3d
       0.11100297 0.013434195 -0.09077655 0.051727828
0001a0 74 9f a9 3d de 9e cd 3b fb 0a ca 3c 40 1a 8f bd
       0.082823664 0.006275042 0.024663439 -0.06987429
0001b0 42 d8 1a bd 60 0c 87 3b f2 19 0a 3d 0d 82 0b 3d
       -0.037803896 0.0041213483 0.03371615 0.034059573
0001c0 b8 2e 80 bd c2 09 b6 bd 7d 6d 6d 3d 42 3d 8d bb
       -0.06258911 -0.0888858 0.057965744 -0.004310281
0001d0 40 f6 0c 3d 76 cf 6e bd 35 f1 8c bc 15 eb 43 bd
       0.03441453 -0.05830332 -0.01720486 -0.047831614
0001e0 f6 32 4e bd 34 41 8d bc 82 5a 3c bd ef 4d cb bc
       -0.05034157 -0.017243005 -0.045984752 -0.024817435
0001f0 76 23 14 bd ac 33 53 3e 2b a3 67 3c f7 b3 53 bd
       -0.03616663 0.2062518 0.014138023 -0.0516853
000200 25 ed cc 3d 7b cc c1 bc 8a d0 c7 3d a3 53 92 bd
       0.10006169 -0.023657074 0.097565725 -0.07144859
000210 c0 60 17 bd cc 67 64 bd 91 86 0d 3d 3f 7b 4c bd
       -0.036957502 -0.05576305 0.03455216 -0.049922224
000220 ce 94 2f bd 7c 71 00 3d ac 75 76 bd b0 45 e2 3d
       -0.04286652 0.031358227 -0.060170814 0.11048448
000230 f3 e1 b4 3c 2a 4e 06 3c aa 61 12 3d c4 ba 34 bd
       0.022080397 0.008197347 0.03573767 -0.044123426
000240 88 e2 c3 3c 98 1f 90 3d ae db 72 bd 0d 02 c4 ba
       0.02391173 0.07037276 -0.059291534 -0.0014954224
000250 19 78 21 bc 02 16 53 3d a7 24 fc bc 71 fd 94 bc
       -0.009855294 0.05153466 -0.030779196 -0.018187257
000260 24 48 71 bc 43 1a 54 bc 99 e3 69 3c ce 52 a9 bd
       -0.014726672 -0.012945714 0.014275455 -0.08267747
000270 f6 a2 cc bd fa 68 de 3c 54 b5 bb bd be ac b6 3d
       -0.0999202 0.027149666 -0.09165445 0.08919667
000280 d6 d4 2d bd 3c 89 19 3d 33 20 b4 bd 86 51 11 3e
       -0.042439304 0.037484393 -0.08795204 0.14191255
000290 64 3d 41 3d cf 3b 31 bd 8a 55 27 be 5e 68 df 3d
       0.047177687 -0.04326993 -0.16341224 0.10908578
0002a0 65 49 88 3d fd 38 24 bc 80 1b 94 3d 96 b3 61 bd
       0.06654624 -0.010023353 0.07231808 -0.055102907
0002b0 93 da 28 bd dd 7f ee 3c 6e 0c 40 bd 7e d7 ee 3d
       -0.041224074 0.029113704 -0.046886854 0.116621956
0002c0 8e c7 e4 ba 8b 00 1b bd 87 80 62 3d ba 03 26 bd
       -0.0017454491 -0.037842315 0.055298354 -0.040530898
0002d0 3e 92 63 bc c0 05 d0 bc d5 60 09 ba 90 d9 ae bd
       -0.013889847 -0.025393367 -0.00052405644 -0.085375905
0002e0 13 6d 43 bd 0d 56 40 3d a5 0e 24 bd a1 23 81 3d
       -0.047711443 0.046957064 -0.04005303 0.06305624
0002f0 84 4e cb 3d 11 ae e6 3d c9 b6 c8 3d e5 e8 50 bd
       0.09927085 0.11263669 0.098004885 -0.051003356
000300 71 da 03 3d 0d 7c 8d 3c 8d c1 af bc 10 22 b8 bc
       0.032190744 0.017271066 -0.021454597 -0.02247718
000310 31 8a d2 bd 02 11 bd 3c f6 48 d1 3c 58 bb d5 3c
       -0.10280264 0.023079399 0.025547486 0.026090309
000320 6f 53 e0 3c 45 78 fe 3c b9 77 a8 bd 64 2f e5 3c
       0.027383534 0.031063208 -0.0822596 0.0279767
000330 b0 5e 0b bd 71 a1 64 3c f4 66 37 bc 10 16 1b bc
       -0.034025848 0.013954506 -0.0111939795 -0.009465709
000340 ac ad be 3d 2a fa 69 3d 10 58 73 bd f6 36 2d bc
       0.09310469 0.05712334 -0.059410155 -0.010572186
000350 dd 44 1b bd e8 5e 8b 3d ee 10 38 bd b5 87 c5 bc
       -0.03790747 0.06805211 -0.04493802 -0.024112562
000360 a0 3a 74 3b 6e b2 ed 3b 73 29 5c bc a1 c8 c0 bc
       0.0037266389 0.0072539365 -0.013437617 -0.023533167
000370 25 14 6b bc c4 86 46 3c a4 30 46 bd 9d 1e 82 3c
       -0.014348065 0.012117092 -0.04838623 0.015883738
000380 e0 fe a7 bd 97 0f 2c bd 69 5c 53 bc 6a 84 2e bc
       -0.082029104 -0.042007055 -0.01290045 -0.010651687
000390 42 43 2a bc 3e 39 59 bd a5 bd 7b bc 5a 8e ac bc
       -0.010392012 -0.053033106 -0.015365039 -0.021063972
0003a0 1f 7f 07 3d 11 08 96 3d f5 27 5e bc 81 ea 17 3c
       0.033080216 0.07325757 -0.013559331 0.009272219
0003b0 f3 7f 80 3c 5d 9e 85 3d 56 4b 5f 3d 28 34 6d bd
       0.015686011 0.06524346 0.054515205 -0.05791107
0003c0 40 77 8a 3d 18 2c 19 3d fe 5b 17 be 9e 31 73 3d
       0.067610264 0.037395567 -0.14781186 0.05937349
0003d0 36 27 dc bb f3 74 3b 3d 5f 32 30 bd 8c 37 9b 3d
       -0.0067185415 0.04576583 -0.043016788 0.07578954
0003e0 5f 8f a7 bb 7d 07 ce bd 4d 31 97 3d 7a 75 e4 bd
       -0.0051135267 -0.10060022 0.0738245 -0.111552194
0003f0 87 93 8a bd e2 f6 b4 3b 33 09 ee bd 8d 51 b4 3d
       -0.0676642 0.005522595 -0.11622848 0.08804617

emb.genre.weight f4 [18, 16]
000000 9b d1 08 bb 55 38 6d 3e 2b 41 44 be 0c e1 7b bd
       -0.0020876888 0.2316602 -0.19165485 -0.06149392
000010 9f be 4a bc c6 48 42 be f0 78 96 3e 82 39 ee 3d
       -0.012374549 -0.18973073 0.29389143 0.116320625
000020 42 2b 4b 3e 4e a9 9a be 1c 86 9a be 03 c9 b2 bd
       0.1984072 -0.30207294 -0.30180442 -0.08729746
000030 23 0d bd bd 82 9b e0 3d be 08 27 3e f0 8f 43 bc
       -0.09231021 0.10967161 0.16311929 -0.011936173
000040 6f a3 79 3e d2 82 f1 be b5 bd 57 bd fb 73 5b be
       0.24378751 -0.4717012 -0.052671153 -0.21430962
000050 99 39 21 bd 34 97 0f be 4f 9d 4b 3d 25 15 e2 3d
       -0.03936157 -0.14022523 0.049710568 0.11039189
000060 f6 04 71 be 17 8c a3 3e 81 5b 02 be af f4 d5 3d
       -0.23537049 0.31942818 -0.12730218 0.1044706
000070 37 94 cd 3e a2 d8 af 3c 93 6b 8e be 8b 11 2f 3e
       0.4015214 0.021465603 -0.27816448 0.17096536
000080 17 7c 32 3d 0a bd 2b bc ba 10 88 be ba 53 83 3e
       0.043575373 -0.010482082 -0.2657526 0.25649816
000090 a7 a6 b4 be 2d 21 be be ae 65 13 3d 37 08 8e be
       -0.35283396 -0.37134686 0.03598564 -0.27740642
0000a0 34 df ca 3d 44 b9 e2 bd 0f 9c 2c be 65 a6 fd be
       0.09905854 -0.11070493 -0.16856407 -0.4954101
0000b0 b6 b8 d6 bd 4d 08 8a bd 05 25 c6 3d c9 53 ae be
       -0.104844496 -0.067398645 0.0967503 -0.34048298
0000c0 5b 2a 86 be d2 f8 bd be 9a cc dd 3d 5b 36 b6 bd
       -0.2620419 -0.37103897 0.1083004 -0.08897086
0000d0 1b 0a 80 be 89 bf a2 3d f7 b3 5b be 76 74 9d be
       -0.2500771 0.07946689 -0.2145537 -0.30752915
0000e0 c5 79 47 3e 6d 92 54 3d 70 42 c1 be 3b 91 c0 be
       0.19480045 0.051897455 -0.37746 -0.37610802
0000f0 14 bc 38 3d 1b 30 00 3e 39 94 a1 be 0f f2 d6 be
       0.04510124 0.12518351 -0.31558397 -0.4198155
000100 c8 93 36 3d 85 49 30 be 90 44 8a be 2f dc 4a 3e
       0.04457453 -0.17215545 -0.27005434 0.19810556
000110 69 11 56 be db f1 f4 3c fa 77 38 3d ae d5 51 3e
       -0.20905079 0.029900482 0.045036294 0.20491669
000120 fb 80 a0 3e d6 f2 ba 3c 35 b4 c7 be ce 35 21 be
       0.31348404 0.022820871 -0.39004675 -0.15743181
000130 3f e8 2c be d2 b9 f7 bd 9a ca db 3d 38 8b af bd
       -0.1688547 -0.12095989 0.107320026 -0.08571476
000140 05 a9 33 3c 9f bc 21 be 8b c8 1d 3e e3 c1 c9 3d
       0.01096559 -0.1579461 0.15408532 0.09851434
000150 14 57 79 3a 69 fb a6 3e b9 c5 22 3e 30 66 b9 be
       0.0009511572 0.32613686 0.15895738 -0.36210775
000160 f3 43 8b 3e 83 92 a8 be 90 f8 97 3d 46 7b ae 3e
       0.2720028 -0.3292428 0.074204564 0.34078425
000170 5f 5d 3d be a8 cf c4 3e f5 13 7c 3e 43 69 89 3e
       -0.1849265 0.3843968 0.24616988 0.2683812
000180 72 5b 29 be 21 b5 53 bd 2b 3b 68 be 05 1b 87 bd
       -0.1653879 -0.05168641 -0.22678821 -0.065969504
000190 15 d1 a5 3d d9 b2 b4 3e d3 d4 9d be 18 bd 1e 3e
       0.0809652 0.352927 -0.30826434 0.15501821
0001a0 1d 63 85 3e 1f 04 c1 bd 9c de d8 bd 9d e3 95 bd
       0.2605218 -0.09424614 -0.10589334 -0.073188044
0001b0 c7 85 4c 3d 92 9b cc 3e 2b 99 90 3d e4 38 42 be
       0.049932268 0.3996244 0.070604645 -0.18967015
0001c0 61 d1 2f be 65 2d 43 3d 16 33 da 3d e3 02 49 be
       -0.17169715 0.047650713 0.10654275 -0.19630007
0001d0 64 bd 8e 3e 8c b2 16 3e 36 28 b8 be e4 46 62 3d
       0.2787887 0.14716548 -0.3596818 0.055243388
0001e0 34 6c 50 3e 6f e6 95 bd 8f 73 62 3e 1c 8c 5a be
       0.20353776 -0.07319342 0.22114395 -0.2134251
0001f0 44 d2 68 3e f8 97 c0 3e db 90 2f be d7 d4 bd be
       0.2273646 0.37615943 -0.17145102 -0.37076446
000200 c8 07 6a 3e fc 0f a6 be 03 cf 5f 3e 2d 38 38 3b
       0.22854531 -0.3243407 0.21856312 0.0028109655
000210 85 e8 33 3e 29 ef 4d 3e 76 48 b4 be 00 9f d8 3e
       0.17569168 0.20110764 -0.35211533 0.42308807
000220 77 4c 6d 3e a9 01 d4 3b 42 3a ae 3c 5a 86 b3 bc
       0.231737 0.0064699245 0.021268014 -0.02191465
000230 21 12 c3 3d 0f 0f fe 3d 75 59 9d be 38 a7 3e be
       0.09524942 0.12405216 -0.30732313 -0.18618476
000240 6c a9 34 3e e5 30 b8 3d 84 9c 3c 3d 46 cd 13 3e
       0.17642754 0.08993701 0.046047702 0.14433774
000250 bd a5 6f 3e 78 9f 0a bd 36 b7 eb bd 70 14 9b bc
       0.23403068 -0.033843488 -0.11509554 -0.018930644
000260 3e 99 34 3e 47 d1 52 3e 41 99 50 3e 4a b2 ce bd
       0.17636582 0.20587645 0.20370962 -0.100926
000270 a3 1f 51 be 92 6a a6 bd 0b 6a 01 3e 9d 7e ba 3d
       -0.20422225 -0.081257954 0.12638108 0.09106181
000280 a4 84 bb 3e 86 d0 60 be 23 be 33 3e b6 ba 04 3e
       0.36624634 -0.21954545 0.17553 0.1296185
000290 cb 0b 2d 3b 86 f4 10 be f5 4f d0 3e 09 d0 ec 3d
       0.0026404734 -0.14155778 0.40686002 0.11563117
0002a0 0d 0f 8a bd 65 63 40 be b5 88 31 3d 19 39 ca be
       -0.06741152 -0.18787916 0.043343265 -0.39496687
0002b0 69 9a 46 3e ca 71 91 3e 20 72 96 3e fe 0b 8d be
       0.1939484 0.28407127 0.29383945 -0.27548212
0002c0 33 54 d1 be 4d 47 0e 3e 8d 18 10 3e f4 60 ab 3d
       -0.4088455 0.13894387 0.14071865 0.08368102
0002d0 48 23 08 be 03 0d 2e 3d 90 c9 be 3d a5 4a 49 bd
       -0.13294709 0.042492878 0.09315789 -0.049143452
0002e0 7b 96 62 3e 30 aa a5 3e e6 ba b2 bb 0b 53 c1 3e
       0.22127716 0.32356405 -0.005454409 0.3775867
0002f0 5b 78 a6 3e a1 de a1 3b c6 51 14 be 8d 1a b9 be
       0.325137 0.0049398695 -0.14484319 -0.3615307
000300 26 56 83 3d e0 83 3d 3e 81 f0 7d 3e ea 19 86 3e
       0.06412916 0.18507338 0.24798776 0.26191646
000310 73 ae 18 3e 45 f4 e4 bd 93 dc 97 3d e5 fb b8 be
       0.14910297 -0.11179403 0.07415118 -0.3612968
000320 dc 7e 85 3e e8 5b ae bc e8 f9 fb bd a0 de a1 3e
       0.2607335 -0.021284059 -0.12303525 0.31615162
000330 c9 c8 92 bd 9c 29 b3 3e 05 38 a6 3d 0e 6c 6c bc
       -0.07167203 0.34992683 0.08116154 -0.014430059
000340 57 e0 87 be b7 47 99 bc 29 ae 72 bd 87 3d ae 3e
       -0.26538345 -0.018710954 -0.059248123 0.34031317
000350 8a df 17 be cb 15 a5 bd ea 45 01 bf cd f6 a5 3e
       -0.14831367 -0.08060797 -0.50497305 0.32414857
000360 e2 84 bc bd d1 02 90 3e ce e1 9d be 2b 05 56 3d
       -0.09205033 0.2812715 -0.30836338 0.052251022
000370 fd 40 fc 3d 7e 4e a6 bd 00 92 df bc 49 5b 77 3e
       0.12317083 -0.0812044 -0.027291298 0.24155916
000380 0c 73 2c 3e 1b bd 79 3b 20 5d 36 3e 1b c2 4a be
       0.16840762 0.00381071 0.17808962 -0.19800608
000390 cf 51 15 be 3c a3 61 3e 7b b2 3a be 50 5b 03 3e
       -0.14581989 0.22034925 -0.18232147 0.12827802
0003a0 c9 1e 71 3c b1 c9 73 be 4f f0 ab 3e 5c 54 80 be
       0.014716812 -0.23807408 0.33581778 -0.2506436
0003b0 7a 78 4b 3d f7 00 13 be 8e 8b a3 3d 5e 9a 8b be
       0.049675442 -0.14355837 0.07985602 -0.2726621
0003c0 e6 23 6e 3e a8 2d 60 3e 49 ed 00 be c0 c9 b1 3d
       0.23255882 0.21892416 -0.12590517 0.08681059
0003d0 9d 7f 21 3e 50 56 92 3e 3e 2f f1 bd be 2b b6 3d
       0.15771337 0.28581476 -0.11776589 0.08895062
0003e0 70 a1 d3 bb 95 29 e6 3d 7f f5 ae 3d ea f4 0e be
       -0.006458454 0.112384 0.085429184 -0.13960615
0003f0 d9 90 67 be 7a 31 8d 3e 5d a5 a1 bd 28 bd 51 be
       -0.22613849 0.2757681 -0.07892869 -0.20482314

lin.gender.weight f4 [2, 1]
000000 3e a3 71 bc 6d 33 54 bd
       -0.014748393 -0.051806856

lin.age.weight f4 [7, 1]
000000 57 bd 83 bd b2 bb 73 bc 73 24 62 bd 43 65 16 bd
       -0.06432598 -0.014876293 -0.055210542 -0.036717664
000010 64 d0 c0 bc d6 f9 20 bd 40 3b 52 bd
       -0.023536868 -0.039300762 -0.051326036

lin.occupation.weight f4 [21, 1]
000000 eb ab 9d 3c 99 c7 fb bc 23 7d 2e bd 5b 3e fc bc
       0.019247016 -0.030734824 -0.04259981 -0.030791452
000010 00 8b 66 bd 3c fb 34 3d 92 97 09 bd e6 a9 77 bd
       -0.056284904 0.04418491 -0.033591814 -0.060464762
000020 f4 ab 11 be 3b 91 37 3d 0d dd 47 bd f3 ef 03 bd
       -0.14225751 0.044816237 -0.048794795 -0.032211255
000030 13 34 89 bd ac 0d 79 bd 1d 70 63 bd 1d 72 b7 bd
       -0.066993855 -0.060804054 -0.05552684 -0.08957312
000040 6f 4c 54 bd cc 2a d7 bc 44 6e 9a bd 9d 9b b3 3d
       -0.051830705 -0.026265524 -0.07540563 0.08769915
000050 c0 13 1a bd
       -0.03761649

lin.item_id.weight f4 [3883, 1]
000000 60 79 5b 3e 61 2c 89 3c 71 c9 d5 3c 2b 0f be bb
       0.2143302 0.016744794 0.026097031 -0.005800148
000010 51 85 93 bb 32 f2 95 3d b2 3c 9a 3d fa ee d0 bb
       -0.0045019765 0.07321586 0.07531108 -0.0063761445
000020 88 f6 f7 bc 2c 2d 27 3d 2b b9 01 3e 46 a8 39 bd
       -0.030268922 0.040814564 0.12668292 -0.045326494
000030 13 52 10 3c 6f 26 05 bc 9e d0 28 bd a1 af 56 3d
       0.0088086305 -0.008126839 -0.041214578 0.052413587
000040 1f d4 58 3e 57 ed 0d bd 32 44 2f 3c 4c 5b 8f bc
       0.21174668 -0.034650173 0.010697411 -0.017499588
000050 14 75 21 3d 80 ef 54 bc 82 10 fe bc 9d af ba 3d
       0.039418295 -0.012996554 -0.03101373 0.09115527
000060 24 aa 62 3d 27 9e 82 bc ab e2 12 bc 69 50 c0 3c
       0.05533804 -0.015944554 -0.008965175 0.023475843
000070 c4 c2 5d bc c2 3c ae 3b 8e 28 0e bd 7b d9 11 3e
       -0.013535205 0.0053173015 -0.034706645 0.14243118
000080 68 39 41 bd 1e 88 a6 3e c2 05 06 bd 62 5d 05 3e
       -0.047173887 0.32525724 -0.032720335 0.13023904
000090 85 ea 47 bc 36 b4 4c bd 6c 16 11 3e a0 76 41 bd
       -0.01220191 -0.04997655 0.1416871 -0.04723227
0000a0 3c 0d 53 3d 0d 98 8d bc 5c 89 9c 3b e6 20 85 bc
       0.051526293 -0.017284418 0.0047771167 -0.016251039
0000b0 63 91 93 3c 12 6d b3 bc 91 15 f2 3c 4f 43 2e bb
       0.018013662 -0.021902595 0.0295513 -0.0026590412
0000c0 4f c7 c6 3c 20 94 0b 3e 15 c0 95 bd e9 87 4b 3d
       0.02426496 0.13630724 -0.07312027 0.04969016
0000d0 89 e1 0b bd 96 39 51 bd 38 c7 36 bd b3 7e 98 bc
       -0.034150634 -0.05108031 -0.044623584 -0.018615102
0000e0 a5 81 ac bb 2e 18 bb 3d f3 4c 9d 3b f8 82 6d 3c
       -0.0052644783 0.09135471 0.004800433 0.014496557
0000f0 37 c8 99 bc 66 ca d3 3c c3 2d a5 bc b8 35 87 bd
       -0.018772228 0.025853347 -0.020163422 -0.06602043
000100 3d ff 72 bd 49 20 18 bd 1e 23 14 bd 4b d0 2a bc
       -0.059325445 -0.037140165 -0.036166303 -0.0104256375
000110 02 1b 71 3d e2 26 b1 bb 54 a7 0f bd 56 ac 30 bc
       0.058863647 -0.0054062465 -0.035071686 -0.010783276
000120 66 e6 60 3d 36 d1 56 3c 12 8e 45 bd f6 e7 13 bd
       0.054907225 0.013111403 -0.048231192 -0.036109887
000130 66 29 0d bd a1 c8 bd bc fe 4e 9e bc 87 80 9e bb
       -0.03446331 -0.023166956 -0.019324776 -0.004837099
000140 6b 26 88 bc 88 7b 14 3c 0f 8c 1e 3c 50 c4 28 bd
       -0.016619882 0.009062655 0.009676947 -0.041202843
000150 ee 5e ba 3c e0 5f 23 3d db e3 a6 bc 22 37 ac bc
       0.022750344 0.039886355 -0.020372322 -0.021022383
000160 f7 02 17 bd 25 ed df bb 3b b4 27 bd 6b cc 0b bd
       -0.036868062 -0.0068336898 -0.040943366 -0.034130495
000170 39 9a c1 bc 3a 8f ae ba 74 8a 80 bb 9a a9 3f bc
       -0.02363311 -0.0013317831 -0.003922755 -0.011698151
000180 98 28 85 bd 74 cf ac bc 5a 02 fd 3b b2 a0 40 bc
       -0.06501883 -0.021095015 0.0077212276 -0.011757063
000190 c5 86 2a bd f2 5e 8f bc f9 a3 64 3d dc 80 1f 3d
       -0.041632432 -0.017501328 0.05582044 0.03894125
0001a0 2c 75 1e bd 28 89 1f bb 23 46 b4 bc d0 57 84 bd
       -0.038685963 -0.0024343226 -0.0220061 -0.064620614
0001b0 6f 33 91 3e af e9 dc 3d 7a fa c3 3c 5c 2e 35 bc
       0.28359553 0.10786759 0.023923147 -0.011058416
0001c0 06 ce 57 bd be 40 58 bd 74 c2 1b bb 96 0d 51 bd
       -0.052686714 -0.052796118 -0.0023767026 -0.051038347
0001d0 bb d4 eb bc b7 36 22 bd 3e f0 1e bd 2a d0 61 3c
       -0.028787961 -0.03960296 -0.03880333 0.01378254
0001e0 cd f0 e5 bc 4b 03 32 bc 81 51 bc bc 17 93 4c 3c
       -0.028068924 -0.010865043 -0.022988083 0.012486241
0001f0 c8 1c 49 bd a2 f9 fb bc e9 bc 2d bd 2e ee 39 bd
       -0.049099714 -0.030758683 -0.042416487 -0.04539316
000200 dd 9e 36 bd 4b 94 4b bd 4c 6b f0 bc 99 d0 54 bd
       -0.044585098 -0.04970197 -0.029348038 -0.051956747
000210 04 2f 10 bd b3 4b 30 bd 0e c7 f9 bb 81 2b 24 bd
       -0.035201088 -0.043040942 -0.007622606 -0.04008055
000220 8e 03 f8 bc 5a ca d7 bc 79 3e a5 bc 43 9a cb 3c
       -0.030275133 -0.026341606 -0.02017139 0.024853831
000230 96 f1 03 bd bd df 23 bd 6e f8 48 3d fe 5f f3 bb
       -0.032212816 -0.040008295 0.049065046 -0.0074272146
000240 d2 3c d9 bc 9f cb c8 3b c9 17 14 bd 7b 90 b1 3c
       -0.02651826 0.006127789 -0.036155496 0.021675339
000250 2a 0e f5 3d d3 aa 1d 3d ab 96 0d bd 13 ad 12 bc
       0.11965592 0.03849299 -0.034567516 -0.008952397
000260 c2 98 cb 3b 66 d7 97 bc 2a ee 32 bc d2 3c e4 3b
       0.0062132785 -0.018535327 -0.010921041 0.006965258
000270 fc bd 59 ba e4 3a b9 bb 8a 2d 73 bc 07 cf 77 3d
       -0.0008306203 -0.0056527723 -0.0148424 0.06050017
000280 f5 70 8c 3c 56 24 37 ba 23 8b bd 3c 3f c6 3a 3d
       0.017143706 -0.00069863105 0.023137635 0.04559922
000290 38 2a 8b bc 58 25 4d bd 89 b7 8d ba b6 6b 67 bd
       -0.016987905 -0.050084442 -0.0010812144 -0.056499206
0002a0 25 0b c6 3c 97 03 02 bd 75 be 07 bd c7 86 2e 3c
       0.024175236 -0.031741705 -0.03314062 0.010652251
0002b0 6a 21 30 bd 6a 41 ca b9 54 d3 81 3b 0b 82 a4 bc
       -0.043000616 -0.0003857718 0.00396196 -0.02008154
0002c0 8f 70 5f bd 7c 7b 35 bd cc 73 fb 3c 1b 82 28 bd
       -0.054550704 -0.044307217 0.030694865 -0.041139703
0002d0 f1 c4 1c bd 88 61 bd bc 95 0c 23 bd 86 73 6a bc
       -0.038273755 -0.023117796 -0.03980692 -0.0143097695
0002e0 88 ad ae ba 74 41 b3 bc d7 2e 9a bc eb 19 28 bd
       -0.0013326863 -0.021881796 -0.018821163 -0.041040342
0002f0 1f 11 ff bb 93 7b d3 ba 52 84 29 bd 95 05 af bb
       -0.0077840234 -0.001613485 -0.041385956 -0.0053412416
000300 4b d9 3c bc f6 5f 3f bd fd 2c f7 3c 28 91 01 bd
       -0.011526416 -0.046722375 0.03017282 -0.031632572
000310 a4 a4 c1 3b 39 b6 bf 3c 9a 6d 40 bd 9d b9 92 bc
       0.0059095193 0.02340232 -0.046979524 -0.017910773
000320 6e bc 21 bd 1d d7 08 3d 83 16 d3 bc 6d f6 cf bc
       -0.03948634 0.033408273 -0.02576757 -0.02538606
000330 bf 28 b2 bc ea cd 3a bb 1d 09 20 bc 59 fc 09 bd
       -0.021747945 -0.0028504082 -0.009767798 -0.033687923
000340 74 30 ff bc e0 f0 8c bc 26 01 25 bd 91 b6 f9 3c
       -0.031151034 -0.017204702 -0.0402843 0.030482562
000350 03 d7 2a bd 06 65 ba bc bb 03 30 3d 96 b8 b2 bc
       -0.041708957 -0.02275325 0.042972308 -0.021816533
000360 de 0e da bc 5f 9e 81 bb 92 39 a3 bc 50 60 23 3d
       -0.026618417 -0.003955647 -0.019924913 0.039886773
000370 c3 f5 25 3e aa a0 4c 3d 8f 5d b3 bb 5e c5 33 bd
       0.16207032 0.04995791 -0.0054737995 -0.043889396
000380 0c e0 1f bd ff 13 95 bd 7b c4 dd bc 43 1b 9c ba
       -0.039032027 -0.072792046 -0.027071228 -0.001190998
000390 01 e9 57 bb 78 92 9f 3d e7 9d 02 3d 9a 1c 7b 3b
       -0.0032945278 0.077916086 0.03188887 0.0038316608
0003a0 6e be bf 3c ce 84 f8 3c 0d 27 05 3d c7 bd be bc
       0.023406234 0.030336764 0.032507945 -0.023283852
0003b0 2a 0c b4 bb 7c 6e bf bc a5 bb 4f bd 80 3f be bb
       -0.005494614 -0.023368113 -0.05071606 -0.0058059096
0003c0 d0 88 59 bd eb 52 a0 bd 60 c1 43 bd 39 97 d2 3d
       -0.05310899 -0.07828315 -0.04779184 0.1028275
0003d0 9e fd 37 3d dc d1 12 3b cb 19 88 3c b1 5f 52 bd
       0.044919603 0.0022402918 0.016613862 -0.05136079
0003e0 99 0b a5 bc 5c 12 82 3c 64 55 e7 3c d9 c0 5f bd
       -0.020147132 0.015877895 0.02823896 -0.054627273
0003f0 98 c6 1e bd c4 4c 25 bc a2 bb 91 bc 06 4f 13 bd
       -0.038763613 -0.010089103 -0.017789666 -0.035964034

lin.genre.weight f4 [18, 1]
000000 b4 dd ee bc c7 e2 96 bc 74 26 61 3d f0 10 5c 3c
       -0.02915845 -0.018418683 0.054968312 0.013431773
000010 86 ac 22 bd d9 bd 54 bd 30 a3 84 bd a2 e8 22 bd
       -0.039715312 -0.051938865 -0.06476438 -0.039772637
000020 7e 4f 69 bd cb 5e 59 bc 40 79 62 bd 63 8d 54 3d
       -0.056960575 -0.013267229 -0.055291414 0.05189265
000030 18 fe c3 bc d6 39 a3 bd 17 7a 56 bd c8 f7 8f bd
       -0.023924872 -0.07970016 -0.052362528 -0.070296824
000040 d9 c6 59 bd 11 33 a1 bd
       -0.05316815 -0.07871068

dnn.0.weight f4 [128, 80]
000000 cd 90 c8 3d 1b da ec 3d 4a 5e 24 3d 62 ba c8 bd
       0.097932436 0.11565038 0.040128984 -0.09801175
000010 b0 81 5b 3d b9 3e 84 bc 81 0b 6d 3c 16 0e cc 3d
       0.053590477 -0.01614319 0.014468075 0.09963624
000020 b7 89 e8 bd a9 5e 89 bd 87 b1 01 bc 5b 83 a7 3d
       -0.11354392 -0.06707508 -0.007915861 0.08179351
000030 16 73 90 bd 69 ee 9a bd 02 05 d1 bd 9a 97 2b bd
       -0.07053201 -0.075650044 -0.10206033 -0.041892625
000040 1c 80 c1 3c 73 b4 2f bd 55 6c 93 bd 78 58 02 3e
       0.023620658 -0.0428967 -0.07198397 0.1272906
000050 ab ba 74 3d e1 21 4c 3d 6c 74 78 bd d0 e6 09 3e
       0.059748333 0.049836997 -0.060657904 0.13466954
000060 e1 d2 95 3c 2e 80 18 3c 26 a7 b6 3d 60 3b f4 bd
       0.018289031 0.009307904 0.089186 -0.119253874
000070 b4 81 8c bd 5d c2 9e 3d ab 77 88 3d 43 cc d7 3d
       -0.068606764 0.077519156 0.0666345 0.10537007
000080 c8 8d 74 3a 37 70 87 3d 16 75 0d 3c 7b de 94 bb
       0.00093289884 0.066132 0.0086338725 -0.0045431233
000090 1a 7d 82 bd a7 17 10 3e 2f 50 aa 3d 44 39 02 3d
       -0.063715175 0.14071523 0.08316075 0.031792894
0000a0 49 93 3e 3d 1d 1f a2 bd 59 26 e2 bd 2b 7d 7e 3c
       0.04652718 -0.07916091 -0.110424705 0.015532772
0000b0 0a b8 61 bd bc d8 24 3d ca b8 9d 3d d9 c2 03 3d
       -0.055107154 0.040245757 0.07701261 0.032168243
0000c0 95 02 a9 bd 95 64 51 be 63 20 91 3e 94 1e 79 be
       -0.082524456 -0.20448525 0.28345022 -0.24328071
0000d0 b0 57 76 bd 3f 8c 45 bd 2d cf 2e 3d ef 32 78 be
       -0.06014222 -0.048229452 0.042678047 -0.2423818
0000e0 ba 71 47 bd 5e 25 0b 3e 3f 21 40 be d8 97 ae 3e
       -0.048692442 0.13588473 -0.18762682 0.34100223
0000f0 29 b9 14 3e ac fe 9c bd d9 2d a4 3e d5 df c2 be
       0.14523758 -0.07665762 0.3206623 -0.38061395
000100 59 6b 38 bd 87 67 0e 3c d5 cb 85 3d 95 1b 69 3d
       -0.04502425 0.008691675 0.065330185 0.05691107
000110 c6 ea 0a 3d ea b3 0a 3e 23 4b 42 3c 66 0e 8e 3d
       0.033915304 0.13545194 0.011858734 0.0693634
000120 d1 29 0e bc 4b 58 c5 bd 05 49 fa 3c 7f 3e d4 bd
       -0.008676962 -0.09635981 0.030552397 -0.10363483
000130 ed e8 00 be dd 4b 64 3d da 04 46 3c 23 ea 6b bc
       -0.12588854 0.05573641 0.012086118 -0.014399084
000140 63 19 ae bd 97 e9 96 bc 8c d7 a3 bb 7f 17 49 bd
       -0.08500936 -0.018421931 -0.0050000604 -0.049094673
000150 32 c8 40 3c 70 1e 00 3e 38 ca 0f bc d3 89 0f 3e
       0.01176648 0.12511611 -0.00877624 0.1401742
000160 c5 80 1b bd 1f f9 50 3d 7c d4 1e bd a9 46 de bc
       -0.0379646 0.05101883 -0.03877686 -0.027133303
000170 97 ef 02 bc d3 bf 2b 3d 99 d5 8c 3b 57 40 74 bd
       -0.007991693 0.041930985 0.0042979238 -0.05963167
000180 bb 74 f6 3b 47 ad ef bd 8d 90 be bd be 7b ab bd
       0.0075212396 -0.11702972 -0.093049146 -0.08373211
000190 fd e6 88 3c ec 0f 2b 3d 19 06 30 3d 75 d2 89 3d
       0.016711706 0.04176323 0.042974565 0.067295946
0001a0 77 9d 92 3d aa 24 8d bd a7 02 fb 3d aa 31 45 3d
       0.0715894 -0.06891759 0.12256365 0.048143066
0001b0 df 48 54 3d 64 a4 dd 3d ee f2 7c bd d9 d8 40 bd
       0.051827308 0.10822371 -0.061755113 -0.047081802
0001c0 b4 f8 d3 bd 91 c8 f5 3c b3 65 8f bd 4e d9 18 3d
       -0.10350171 0.030002864 -0.070018195 0.037316613
0001d0 7e 18 f1 3d 55 63 24 be da 55 bf bd a2 09 89 3d
       0.1177225 -0.16053517 -0.09342547 0.066912904
0001e0 db 26 35 3e d0 b9 8b bd c0 a8 c1 3c 43 ed 90 3d
       0.17690603 -0.0682255 0.023640037 0.07076504
0001f0 c2 ee 26 3e 6d 02 da bc 6a ed 01 be 1b f3 a8 3c
       0.16302016 -0.026612485 -0.12688223 0.020623734
000200 9a b0 55 3d 97 53 6a be d2 bc 72 3d 18 af a0 be
       0.052170373 -0.2288345 0.059262104 -0.31383586
000210 0d 10 ed bd 1d 06 3d be 35 c6 3a 3e 44 cf 10 be
       -0.11575327 -0.18459363 0.18239672 -0.14141566
000220 87 66 a5 be b2 e2 a0 3e cd 89 59 be 0b 09 6d 3e
       -0.32304785 0.31422955 -0.21243973 0.23147981
000230 8c 18 1e 3e 15 ce d2 3d 43 d2 4f 3e 7a b7 0d be
       0.15439051 0.10293213 0.20295052 -0.13839522
000240 4b 25 5b bd 4e d6 a7 bd 04 3e 22 3e 75 ce 8d bd
       -0.053502362 -0.08195172 0.1584397 -0.06924144
000250 fb 48 a6 3d bc eb 87 3c a6 e3 d5 bd 0d bf d5 3c
       0.08119389 0.0165919 -0.10443811 0.026092077
000260 a5 0d f0 3d 17 e3 28 3b ce 06 41 3d af 6b f8 3b
       0.117213525 0.0025770122 0.04712563 0.0075811963
000270 ec 5f a4 3d dd 10 25 bd 3e f9 b4 bd b2 97 74 3d
       0.08026108 -0.040299285 -0.08836602 0.05971498
000280 91 21 62 bd e3 2e dc bd f2 7e bb bd 85 c3 e0 bd
       -0.055207793 -0.107511304 -0.09155072 -0.109747924
000290 a8 d7 e5 bc 76 cf 97 bc f0 92 fa bd 2f 3e 20 bb
       -0.028056934 -0.018531542 -0.12235057 -0.0024451127
0002a0 ba c3 eb bb d7 81 2f bc 20 12 ad 3c c1 f1 a8 bd
       -0.0071949633 -0.010712109 0.021126807 -0.08249236
0002b0 27 38 d3 3d 8e 1c 7f 3d af 54 9e 3c 99 46 83 bc
       0.103134446 0.06228309 0.01932749 -0.016024875
0002c0 40 b4 f1 bd 18 44 ad 3d 60 b6 71 bd e3 24 c3 3d
       -0.11801958 0.084602535 -0.059011817 0.0952852
0002d0 f8 1f 87 bc a3 86 80 3d 47 91 8a 3d e8 17 88 bb
       -0.016494736 0.0627568 0.06765991 -0.0041532405
0002e0 79 ac 29 3d 21 1b 95 bc f0 62 56 3c 44 4f 7e bd
       0.04142425 -0.018201413 0.013085112 -0.062087312
0002f0 c0 9f b7 3d eb fc 81 bc 3e 20 b7 bd 86 f8 99 bd
       0.08966017 -0.015867671 -0.089416966 -0.07518105
000300 ae 41 a6 bd 72 f1 0d bd 1e fe 1a be 12 74 fb 3d
       -0.08117996 -0.03465409 -0.15136 0.12277998
000310 58 07 3c 3d 49 86 b2 bd 4c dd bc bc 43 84 0d 3e
       0.04590544 -0.08717019 -0.023054741 0.13819985
000320 33 1a 18 3d fc 88 98 bc 3c 92 10 3e 13 ba e7 3d
       0.03713436 -0.018620007 0.14118284 0.11314788
000330 8a 04 77 bc 98 c9 75 3d 16 9f 40 3d 46 ea 8d 3d
       -0.015076766 0.060006708 0.047026716 0.0692945
000340 1f d8 91 3e e2 88 47 be 5e d2 81 3e 83 09 c1 be
       0.284852 -0.1948581 0.2535581 -0.3770257
000350 2a f6 51 be b1 a0 b6 bd 98 ca 9c 3b 8c 04 00 be
       -0.2050406 -0.08917368 0.0047848932 -0.12501734
000360 35 67 8f be 4d 55 2c 3e a5 71 88 be b0 99 17 3e
       -0.28008428 0.16829415 -0.26649204 0.14804721
000370 ce a5 4f 3e ca 05 15 3d c6 19 2f 3e c9 5f 6c be
       0.20278093 0.036382474 0.17099676 -0.23083414
000380 92 86 c6 3d b0 db 8e 3d b9 3b 6f 3b 0b f6 c9 3d
       0.09693636 0.06975496 0.0036504103 0.09861382
000390 16 d3 3b bd 0b 00 01 3d c9 bf b7 3c 8d 75 e8 3c
       -0.045855604 0.03149418 0.022430317 0.028376365
0003a0 78 99 28 bd e8 2b 3c 3c 16 16 6d bd da 86 a3 bd
       -0.041161984 0.011485077 -0.05788239 -0.07984705
0003b0 02 8b 24 3d 4e 3d fd bd 38 af ec 3d de 98 b8 3d
       0.04017163 -0.123652086 0.11556858 0.09013532
0003c0 af d6 c5 bd f1 5d 41 bd 22 29 49 3d 14 a9 8e bc
       -0.09660088 -0.04720873 0.049111493 -0.017414607
0003d0 dd c9 ea 3d 2c d4 cd 3d 1e 0c f5 3a e6 de ac bd
       0.114642836 0.10050234 0.0018695628 -0.08440952
0003e0 64 9d b0 bd da 27 bb 3d cd 61 4e bd f0 9b da 3d
       -0.0862377 0.091384605 -0.05038624 0.10674274
0003f0 85 e9 33 3d 94 78 bc bc 05 9a d6 3c b0 fa 69 3c
       0.043923873 -0.023006715 0.02619649 0.01428096

dnn.0.bias f4 [128]
000000 a8 0f eb bc dc 97 bf bd 07 05 05 3d 96 61 1b bd
       -0.028693989 -0.09355137 0.032475498 -0.037934862
000010 10 bd 38 bd 30 62 ca 3d 22 34 64 3c 86 77 2d 3d
       -0.04510218 0.09882009 0.013928445 0.042350315
000020 be 03 10 be e0 f5 d5 3d 71 6d 50 bd 75 68 bf bd
       -0.14063928 0.104472876 -0.05088562 -0.093460955
000030 e2 b3 ac bd 45 5f 22 bd cf b7 c5 bd fb 46 42 bd
       -0.084327474 -0.039641637 -0.09654199 -0.047430974
000040 19 6b cf bd c0 1a 4e bd 26 5c af bc 8a 80 8e 3d
       -0.10127849 -0.05031848 -0.021406244 0.06958111
000050 29 80 81 3d 5b b0 e7 bc fb 9c a4 3d cb 47 91 bd
       0.06323273 -0.028282335 0.08037754 -0.070937715
000060 fa 85 0f bd d8 2b 94 bd 0e 44 29 3d d9 b8 5e bc
       -0.03503988 -0.07234925 0.041324668 -0.013593876
000070 70 21 d0 3a 3b 7a 61 bd 3c 24 10 bc 29 ad c5 3b
       0.0015879106 -0.05504821 -0.008797701 0.006032605
000080 2e a0 04 3c 95 97 af bd fc dd a2 ba bf 55 a3 3c
       0.00809483 -0.08573834 -0.0012425776 0.019938348
000090 64 e5 94 bd 29 d9 ce 3d 82 70 af 3c 7a 60 c0 bb
       -0.07270315 0.10100014 0.021415953 -0.005870876
0000a0 b4 6c 97 bd 78 87 82 bd f3 da 06 3d ea 1e 10 bd
       -0.0739378 -0.06373495 0.03292365 -0.035185732
0000b0 88 dd 45 bd 76 30 e6 bd b2 92 ca bd 61 93 14 bd
       -0.04830697 -0.11239712 -0.09891261 -0.036273364
0000c0 0d 71 ca bd 3f ee 30 3c d0 b7 af bd 79 21 25 bd
       -0.09884844 0.01079899 -0.08579981 -0.040315125
0000d0 de 94 a8 3d 61 71 b2 3d f8 05 e4 3c a6 04 6d 3d
       0.08231519 0.087130316 0.027834877 0.05786576
0000e0 04 3a 92 3d 8a b2 2c bd 25 6f 87 bd 27 38 db bd
       0.07139972 -0.042162456 -0.06612996 -0.107040696
0000f0 3d a6 63 3d f5 a2 96 3d 28 53 c1 3c 21 65 86 bd
       0.05557846 0.073553 0.023599222 -0.065622576
000100 41 aa 9a bd 48 02 c8 bd 86 f0 d6 bd f3 01 80 bd
       -0.075520046 -0.0976606 -0.10495095 -0.06250372
000110 40 4e d7 3c 5c 81 42 bd a4 5e 2d bc 41 9a a7 bd
       0.02628243 -0.047486648 -0.010581646 -0.081837185
000120 89 1c 9a bd 6a ea ab bd e0 f7 de bc 56 9c 33 3d
       -0.07524974 -0.0839432 -0.027217805 0.043850265
000130 c8 74 87 3d f3 1f e4 3c 87 e7 01 ba b4 a8 6b bd
       0.06614071 0.027847266 -0.000495546 -0.057533935
000140 94 53 89 3d fd 12 db bd a6 77 22 bd 55 95 a1 bd
       0.067053944 -0.10696981 -0.039664887 -0.07889811
000150 ee 37 e5 bd 4a b9 16 bd 03 b2 c5 3c 65 75 b2 3d
       -0.11192308 -0.0367978 0.024132734 0.087137975
000160 79 4d ea 3d 55 d8 a0 bd ef 44 6b bd 4e e6 bd 3d
       0.11440558 -0.07853762 -0.057438787 0.09272443
000170 34 3d e8 3c aa 35 49 3d 67 c2 a0 bd 10 b2 93 3d
       0.028349496 0.049123444 -0.07849579 0.07211697
000180 28 8f d0 bd 57 bb df 3c 6b 50 09 3c fd 93 9e 3c
       -0.10183555 0.02731101 0.00838099 0.019357676
000190 16 ce ab 3d 0e 09 d9 bd 16 a5 8f bc d1 7d a9 3c
       0.08388917 -0.1059743 -0.017534774 0.020689877
0001a0 9b 5f 84 bd 58 ac 36 3d 60 43 c4 ba ad a6 ae bc
       -0.06463548 0.044597954 -0.0014973693 -0.021319712
0001b0 dc 99 89 3c b0 cc bb 3c d7 0b 5b 3d ca 1f 82 bd
       0.016796999 0.022924751 0.05347809 -0.063537195
0001c0 bf 30 81 3d 9f a7 ef bd 92 db e7 3d dd 8e 04 3e
       0.06308126 -0.11701893 0.113211766 0.12945123
0001d0 4f 17 0d bd 26 e7 6b bb 25 3d 80 3d 43 78 4f bc
       -0.034446057 -0.003599593 0.062616624 -0.01266295
0001e0 5e f4 91 3c bb ff 50 bd ee c5 48 bd c5 a0 be 3d
       0.017816719 -0.051025134 -0.049016885 0.09308008
0001f0 08 30 1e bd 96 37 33 3c 39 6d 6e bd c8 f1 46 bd
       -0.038620025 0.010938546 -0.05820963 -0.048570424
