Data/artifacts/deepfm_pytorch.pth (torch, 347954 bytes, 15 tensors)

emb.gender.weight f4 [2, 16]
00000000: c154 9fbe 142f d5bd 67f9 9d3e d708 233f
00000010: 6e44 d53e 442f 03bf e2f5 a8be d5a9 2abd
00000020: f2ad bfbe e626 853e 61c7 553e b442 e6bd
00000030: b30f 1fbe f0d3 033e b7c7 d53e 8d43 483e
00000040: 5320 983e 5365 ef3e 100b 503e 9e13 4b3c
00000050: 9aa9 a4bd 8d42 af3e 1981 fb3d 7669 8b3e
00000060: d6ff 6dbe cbaf aebd 10da 943e a737 79be
00000070: 35e7 ebbe b249 0fbf 5aa5 2cbe 4e25 b53e
-0.3111935 -0.1040937 0.3085434 0.63685364 0.4165377 -0.51243997 -0.33000094 -0.04166587
-0.37437397 0.2600624 0.20876838 -0.11243191 -0.15533333 0.12873816 0.41753933 0.19557019
0.2971216 0.46756992 0.2031672 0.012394814 -0.080401614 0.34230462 0.12280483 0.27228898
-0.23242125 -0.085296236 0.29072618 -0.24337636 -0.46074834 -0.55971825 -0.16859952 0.35380024

emb.age.weight f4 [7, 16]
00000000: c34f 85be 3246 aabd 42d0 82be 4d4f aabd
00000010: 05a5 77be 3313 cdbd 9a28 533e f53e a7be
00000020: e9b8 cbbe 3597 b13e bbeb 213d df86 89be
00000030: af90 abbe ec57 bf3e 705b 13be 0bf9 8b3e
00000040: d2c5 903e 3bc2 fd3d a084 03bf 8c6e fc3d
00000050: 7e94 a9be 497a eabe 0b26 bcbe f394 f03c
00000060: 686d bebe a1e0 bdbe 9f14 303e 5c7d 363e
00000070: 1565 7cbe 772d 9c3e 5d2a b7be 096a 833e
00000080: 34e8 a8be b0c5 653d ac61 00bf ac99 f03e
00000090: 206b bc3e 5b32 383e 2aa7 7d3e 3c6a 713e
000000a0: 4f4d b23e 79c5 22be a8f1 403e 43c7 cbbe
000000b0: f826 29be 6102 303d 850c 57be 5112 a83e
000000c0: fba1 983e f8e1 033e 9347 b3bd c733 d03d
000000d0: 89ac f03c 0b77 d9bd 0ed8 0b3e daf3 623e
000000e0: d30b a13e dd0b 28be 5542 65be 03e0 19bd
000000f0: 36c8 94be 392d 3d3e 07a5 dfbc 22de debd
00000100: e64d 35be f6a6 e4bd 8bac 3ebd df57 263e
00000110: 2db9 583e 34c9 a0bd 8bd8 8d3e 3659 9dbd
00000120: 9602 e23e 362a 35bd 5ee9 a43d 3e9d 073b
00000130: ae80 903c c9af 093e b1cc 82be b49a 753e
00000140: 7f5f 21be a5c2 7cbb 5620 403e c222 a73e
00000150: 5c32 613e 50bb 86bd 435f 723d 31f8 b13e
00000160: f401 09be d9f1 98be 7758 3bbd 4ab9 f13e
00000170: aa39 18be b887 cebe fdcb f83c 0a0b e9bd
00000180: 746b 803d c4da b53e 79c7 a13e 48ad c5be
00000190: 05b8 92bc 1a9d 9c3e 7d48 c6be c52d 81bd
000001a0: 3856 bf3e 21e1 cd3e 8fdc 67bd 8d7f 45bd
000001b0: 1eac 9f3d 0dbf 56be 41b9 e33e 85f5 b93e
-0.26037416 -0.0831417 -0.25549513 -0.08315907 -0.24184044 -0.100134276 0.20620957 -0.3266522
-0.39789513 0.34685674 0.03953145 -0.2686071 -0.33508822 0.37371767 -0.1439035 0.27338442
0.28275925 0.12390562 -0.51374245 0.12325773 -0.33121103 -0.4579642 -0.36747774 0.0293679
-0.37192845 -0.3708544 0.17195366 0.17821258 -0.24647935 0.30503437 -0.35774508 0.25666836
-0.32989657 0.056096733 -0.50149035 0.46992242 0.3680048 0.17987959 0.247708 0.23575681
0.34824607 -0.15895642 0.18842185 -0.39800462 -0.16518772 0.04297102 -0.2100087 0.32826474
0.2981108 0.12879169 -0.08753886 0.10166126 0.029379146 -0.10618409 0.13656637 0.22163334
0.31454334 -0.16410775 -0.22388585 -0.03756715 -0.29059 0.18474282 -0.02730037 -0.10882212
-0.17705497 -0.11164658 -0.04655127 0.16244458 0.21164389 -0.078508765 0.27704272 -0.07683031
0.44142598 -0.04422971 0.08052324 0.002069309 0.017639484 0.13445963 -0.25546792 0.23984796
-0.15759085 -0.0038568166 0.18762335 0.32643706 0.21991867 -0.06578696 0.05917288 0.34759668
-0.13379651 -0.29872015 -0.045738664 0.47211677 -0.14865747 -0.4033792 0.030370707 -0.11379059
0.06270495 0.35518467 0.31597498 -0.38608766 -0.017910013 0.3058861 -0.3872718 -0.06307558
0.37370467 0.40210822 -0.056606825 -0.048217345 0.077965006 -0.20971318 0.44477275 0.3632013

emb.occupation.weight f4 [21, 16]
00000000: b3be b63d d8f4 03be 40e5 3dbd fe76 a0bd
00000010: f07f 67be c71f c33b b6ed 893d da2d 663d
00000020: e15b 00bd 7c3a 9fbd f419 353e 6dc6 2e3b
00000030: 1882 833e bef1 513e a580 363e 579d 703e
00000040: f5cc 673e ee42 163e fe81 923d 0e49 063e
00000050: 3cec 813d 7011 1d3e ed9f 12be d42a 993e
00000060: ab0b ac3e 195f e83d 08ee 1d3e 4661 cd3e
00000070: ca38 8d3e 3530 4f3e c50d 483d 4db2 0ebd
00000080: 090f 01be 1c60 04bd 9b49 e8bd c767 02be
00000090: fd13 fcbc 473d 053e e5ab 1fbd bda6 7dbe
000000a0: bab6 223e 72ad 503e 7736 983e 6c2f 7c3e
000000b0: 261a 04be a251 3ebd c396 753d 6101 543e
000000c0: 2220 babd d8d0 d1bd a9ff 783e b809 6fbe
000000d0: 2bb2 873e db1a 9fbe 92fa 53bd 8ecd e6bd
000000e0: cbdb b93d df26 1abe 8c60 b8bd abd3 cbbd
000000f0: a4ee 41be dbb8 7dbe 627f 50be 68a2 2b3d
00000100: 09c8 dbbe 1ee1 fb3d c535 803e 610d 1abe
00000110: 31a4 9a3d f2e3 223d 5407 b03c 84be 673e
00000120: 0109 aebe bdf6 91bd a2f5 a5be 5ce4 28bd
00000130: 08b5 a2be 4a8e 7b3d 060d 54be a37a 543e
00000140: 2c76 cf3c f0f5 b13e 1085 8c3e 4b70 853e
00000150: bb6b bfbe 882a 2bbe 7e55 243e 3ce8 41be
00000160: 5f22 cd3d 0613 223e 31f8 62bc f14a 3f3e
00000170: dfc5 483e ffce 873d 2657 34be 9022 6e3e
00000180: 7668 ff3d 7091 293d b44b efbc d195 c0bd
00000190: b382 5cbe 8cc1 ad3d 249a 243e c75e 2e3d
000001a0: 524e b1bd 223c 6f3e fb23 a23e ae31 30bd
000001b0: 6cbf 6f3d 7889 8b3e 6a63 573c f976 91bc
000001c0: bf0e e5bc e26e 1d3d 6ef3 3a3e fa8a f3bd
000001d0: 4419 3d3e 0252 b4be a1d4 3cbd bbf1 9a3e
000001e0: adc0 be3e f9b3 eebd ca39 e0bd beec aa3e
000001f0: 0021 093e ae97 243e 1867 57be 9736 a23e
00000200: 329b 353e 7bc1 5fbd 51bc 673e ada2 71be
00000210: 3178 053e 2c60 89be cb04 a93e f516 aabe
00000220: 8b8d ad3e 657d 56bd ba97 31be 4a21 853e
00000230: f3b3 8abe 574b 2cbe 0cfe 923e 6909 be3e
00000240: 71cb 70be d6bc e5be 9b06 1d3d 823e 5bbe
00000250: b466 70be 2672 4fbd d5a7 66be e73a 4c3e
00000260: 10b9 083c 6216 043d 7a43 263d b7a3 a73d
00000270: 0d4c 77be efa3 83be a795 6bbe 8e98 803d
00000280: d355 8dbc 301d 8d3c a519 813e 7279 4bbe
00000290: 49ae b7be fe99 8fbc 0e21 20be c0a6 a5bd
000002a0: 51ea c03d 12f9 00be c956 80be 7813 58be
000002b0: 856c 25be f3a2 43be 39c5 e13d 2d99 d03d
000002c0: 9af7 cfbc 12cd 143e a0d6 00be 2351 debd
000002d0: 95db a5bd 66f0 84bc c75f 2dbe e6fd 0f3e
000002e0: 9e1a cc3e 5082 93bd 14ed 9c3e 6c36 563e
000002f0: a54e 863e 05a0 e23d 79f0 41be aa16 82bd
00000300: 1f87 493e b62b bf3d 344f a6bb a241 493e
00000310: 89cc e1bb 1e63 4f3e 3a28 eabd 701a 82bc
00000320: 39a9 7dbe 98bf 89bd 862a 3cbd ca65 44be
00000330: 9cb4 c83e 8057 d8bd 9c0c ff3b c5e6 0a3e
00000340: 63af db3c bde7 be3d 9932 2ebd d103 3b3e
00000350: 8c40 9c3c 349d 50be d7ab 93be 9ab0 a7bd
00000360: abc6 bc3c d93b a43e eedd 6d3d 0a57 573e
00000370: 52be 34bd 6029 3ebe 2220 b3be e0bb 293e
00000380: c45f 1cbe 832f 693e 002a 5cbd 6905 893d
00000390: 12d2 36be 57fa f0bd 12cc cbbd 7fb4 183e
000003a0: bc92 f2bd 3f25 17be 3c92 0dbe 168b 113e
000003b0: 43cb 6d3e 0648 a33e 6259 23be 0149 aa3e
000003c0: b625 4abd e3c8 3fbd 2155 323d ec4f 3ebe
000003d0: 1cd3 d03d d1de 5dbe 3856 423e 7628 5ebe
000003e0: 6b38 883e 89bf 6dbd b997 8c3e e3fc 143e
000003f0: 27fb 703d 5d52 85bd 35f9 08be fb66 d4bd
0.08923092 -0.12886369 -0.046361208 -0.07835196 -0.22607398 0.005954716 0.06734793 0.05619607
-0.031337623 -0.07774827 0.17685682 0.0026668564 0.2568519 0.20502374 0.17822511 0.2349752
0.22636779 0.14673969 0.071537 0.13113806 0.06343886 0.15338683 -0.1431882 0.29915488
0.33602652 0.113462634 0.15422833 0.40113276 0.2758239 0.20233233 0.048841257 -0.03483801
-0.12603392 -0.03231822 -0.11342164 -0.127349 -0.03077125 0.13011657 -0.03898229 -0.24770637
0.15890017 0.20378664 0.29729053 0.24627465 -0.129006 -0.04646457 0.05995823 0.20703651
-0.0908816 -0.10244912 0.24316277 -0.23343551 0.2650312 -0.31075177 -0.051752634 -0.11269675
0.09075125 -0.1505389 -0.0900279 -0.09952482 -0.1893869 -0.24777548 -0.20361093 0.04190293
-0.42926052 0.12298797 0.25041023 -0.15044166 0.07550848 0.039768167 0.02148787 0.2263127
-0.33991244 -0.0712714 -0.32413965 -0.041233405 -0.3177874 0.061414994 -0.20708093 0.20749907
0.025324903 0.34757948 0.2744527 0.26062235 -0.3738688 -0.16715443 0.16048238 -0.18936247
0.100163214 0.1582757 -0.013853119 0.18680932 0.19606732 0.06631278 -0.1761137 0.23255372
0.12471096 0.041398466 -0.029210903 -0.09403575 -0.21534233 0.08484182 0.16074425 0.042570855
-0.086575165 0.23362783 0.31668076 -0.04301613 0.058532164 0.27253318 0.013146261 -0.017756926
-0.027961133 0.038435824 0.18256924 -0.11891742 0.1846667 -0.35218817 -0.046101216 0.3026255
0.37256375 -0.11655421 -0.109485224 0.33383745 0.13391495 0.16073486 -0.21035421 0.31682274
0.17734984 -0.054627877 0.22630431 -0.23597212 0.1303413 -0.26831186 0.3301147 -0.3322064
0.3389705 -0.05236568 -0.17343035 0.2600196 -0.27090415 -0.16825615 0.28709447 0.37116554
-0.23515107 -0.44870633 0.038336378 -0.21410564 -0.23476678 -0.05064597 -0.2252496 0.19944344
0.008344904 0.03224791 0.040591694 0.08185523 -0.24150105 -0.2571101 -0.23006307 0.062790975
-0.017252838 0.017225832 0.25214878 -0.19870546 -0.35875157 -0.017529484 -0.1563761 -0.08088446
0.09419692 -0.12595013 -0.25066212 -0.21101177 -0.16154678 -0.19105129 0.11023945 0.10185466
-0.02538662 0.14531353 -0.12581873 -0.10855319 -0.080985226 -0.016227912 -0.16931067 0.14061698
0.39864057 -0.072025895 0.30649626 0.20919198 0.26231876 0.110656776 -0.1893939 -0.06351979
0.19680451 0.09334509 -0.0050753597 0.19653943 -0.0068908376 0.20252654 -0.11433454 -0.015881747
-0.24771585 -0.06725997 -0.04593899 -0.19179454 0.39200294 -0.10563564 0.0077834856 0.13564594
0.02681703 0.09321544 -0.042528722 0.18263175 0.019073747 -0.20372468 -0.2884204 -0.08187981
0.023043951 0.3207691 0.058072977 0.21029297 -0.044126816 -0.18570471 -0.34985453 0.16575575
-0.15270907 0.2277203 -0.05375099 0.06690485 -0.17853573 -0.117664985 -0.09951033 0.14912604
-0.118443936 -0.14760302 -0.13825315 0.14213213 0.2322207 0.31890887 -0.15952066 0.33258823
-0.04935237 -0.04682244 0.043538217 -0.18585175 0.10196516 -0.21667029 0.18978202 -0.21695122
0.26605543 -0.05804399 0.27459505 0.14549594 0.058833268 -0.0650985 -0.13376315 -0.103712045

emb.item_id.weight f4 [3883, 16]
00000000: 9928 613e e0a5 843e 143d 3fbe 18a2 413e
00000010: 5133 303d b512 c7bd d556 693d de5b 5c3e
00000020: 034b 9c3d d4b6 54be 40ac 773e 50b0 80be
00000030: d4fc 8abe 68aa 35be 2d3d 41be 5fa5 803e
00000040: 4a90 453d 3167 ce3d 2988 87bd 5467 b63d
00000050: 7628 723d 369b c93c b84d 613d 8b27 f13d
00000060: b93d d7bd c380 1fbd 6f93 c93d c681 ecbd
00000070: 9be0 dabd bfa1 a3bd 36d1 87bd 1b0e 853d
00000080: 2564 1c3c 8d7b 703d 7747 72bd 5c75 ba3d
00000090: d6e1 a23d ab30 af3c 3a2f 823d 9335 623c
000000a0: f29d 5b3d e08a 36bc a81c 163d d996 6ebd
000000b0: 1c1d 7bbd 01f1 f0bc d528 45bd 90ca d93c
000000c0: cf3e 0dbe 8ab0 20bd 72f1 1f3d 0a9e 9d3d
000000d0: 541b 8b3d 1db5 abbd 31ea ca3b 5cb8 943b
000000e0: d738 c53c 8dd3 323d ed4c 863d c663 b6bc
000000f0: c06c 4abc e20a 1f3d 45e6 b83c 5337 a7bb
00000100: 9cbc 12bd 9b80 e0bb 974e 36bd d63b e13d
00000110: da26 c03d 3948 17bd be2a 823c a2f0 1e3d
00000120: c967 813d 2f06 adbd 618e 783c 8501 a7bd
00000130: fd13 83bd 96e2 39bc fdff 86bc eeae 893d
00000140: cccc 373d 2c51 f93d 778e 20be a451 ae3d
00000150: 0b07 8d3d 2f1a bd3d 9b7f c73d 4712 253e
00000160: 0bb2 943d ac32 11be 2c10 e33d 51bf 04be
00000170: 10c7 ccbd add9 edbd 99dd 0cbe bac2 eb3d
00000180: 0fb4 d9bd 211f 4a3c cbe5 d4bd 99a5 363e
00000190: fa68 e43d 55d0 9a3b 3003 243d 65ed bb3d
000001a0: d2c1 283d 597d f3bc 4028 863d 5e25 f5bd
000001b0: edb7 39bd eeb4 47bd 07ff 273c 6354 d63d
000001c0: 1912 d7bc da53 e4bc 444c 28bc a5fd 33bc
000001d0: 2e25 87bb 9070 babc ddb5 12bd 9704 2dbd
000001e0: 1be7 3cbe 12e9 06bc 55b7 8ebc e1fc 5abd
000001f0: 002d 5dbd d9e7 973d 90ed ddbc a071 8fbc
00000200: 1155 533b d20d 90ba 03ff 9a3d 81d2 84bd
00000210: 7b30 eabc a5c7 51bc 7cda 13bc 4524 b4bc
00000220: 0f66 21bc 7273 843c 8526 04bd af8e 9e3d
00000230: 766d 3cbc 5f2f eebc af55 60bb 472e e6ba
00000240: 01a0 46bc 8f79 0839 c4f6 bf3d 8dee 6abd
00000250: 2b5a 603c 1dfc 013d cd01 9e3b 1340 8fbd
00000260: 284d 683b adb1 973d c9e9 a1bd 2577 8c3c
00000270: 696e 923b 055b e3bc f0d9 233d 00c3 b8bb
00000280: 81c3 a4bd 47a7 f2ba 29fb 923d 786e a43d
00000290: 89e5 d53d 1ea1 95bd 4d91 1bbd c5f2 243d
000002a0: 2d10 983c 51b8 4f3d f755 cd3c 326f 7dbd
000002b0: f396 2abc 30f6 113c 6df9 0e3d b2d8 a03d
000002c0: e058 53bd fcdf fdbd 4ef5 b73d 147a 34be
000002d0: be24 f1bd f55b 8cbd 1e47 1cbe 8dfa 19be
000002e0: dd20 f4bd 51c9 163e 456e 15be 047b 333e
000002f0: bcc9 303e 226d da3d e219 313e 995b 16be
00000300: 8ca7 75bd 7ec3 32bd e984 b93c 8e5d 8ebd
00000310: 6453 95bd 272c abbc 95e3 9dbd 750f 4abd
00000320: dda9 9fbd 2995 ca3d bfda d3bd 89a6 ca3d
00000330: d371 2d3d 929d 963d e3ac 2a3d 8dd1 95bd
00000340: 3762 a03c 80b1 2dbd c802 96bd b985 cabd
00000350: 826c b5bd ae60 183a ba1f efbc 6acf e1bd
00000360: fe71 bfbd 0f3c be3d 3ce9 b6bd b4ec 433d
00000370: cfce a93d 42bb 9f3d 58c2 dc3c f17b a0bd
00000380: 9583 99bd 762a 0cbe 2291 b43d 2103 39be
00000390: e99a 34be fd83 1abe 1b68 ffbd c7ae f6bd
000003a0: 8ed9 c8bd 24e7 3f3e b5b7 2fbe 4687 203e
000003b0: 5b26 023e 2999 093e 2948 283e 857a 2ebe
000003c0: f5da 92bc b900 89bd 8556 dbbd f496 d2bc
000003d0: eace 10bd cad6 97ba ce3a e53b a9b8 02bd
000003e0: 8f34 8cbd 7d15 123d 1e6b dfbc 93b2 81bb
000003f0: 5f23 783d fa37 fa3c 9dc4 193c 0e52 8abc
0.21988143 0.25907803 -0.18675643 0.1890949 0.04301769 -0.09720365 0.056967575 0.2151942
0.07631495 -0.20772868 0.24186802 -0.25134516 -0.27146018 -0.17740786 -0.18870993 0.25126168
0.048233308 0.10078276 -0.06617767 0.08906427 0.059120618 0.024610143 0.05500576 0.1177512
-0.105098195 -0.038941156 0.09842574 -0.1154819 -0.10687371 -0.07989835 -0.06631701 0.06496831
0.009545361 0.058711577 -0.059150185 0.09104416 0.07953231 0.021385511 0.06356664 0.013806718
0.053617425 -0.011141509 0.036648422 -0.05824933 -0.061307058 -0.029411795 -0.048134644 0.026585847
-0.13793491 -0.03923086 0.03904862 0.07696159 0.06792322 -0.08384154 0.0061924686 0.004538579
0.024074955 0.04365878 0.06557641 -0.022264373 -0.01235503 0.038828738 0.022570739 -0.0051030307
-0.035824403 -0.0068512685 -0.044508543 0.10997741 0.0938241 -0.03693411 0.015889522 0.038803704
0.063186236 -0.08448445 0.0151706645 -0.08154587 -0.06400297 -0.011345526 -0.016479487 0.06722818
0.044873044 0.121736854 -0.15679346 0.085116655 0.06886109 0.0923351 0.09741136 0.16120254
0.072605215 -0.14179486 0.11087069 -0.12963606 -0.09998906 -0.11613784 -0.13756408 0.115117505
-0.106300466 0.012336523 -0.10395392 0.17836608 0.11152835 0.004724542 0.040042102 0.09176139
0.041200466 -0.029722856 0.06550646 -0.11970018 -0.04534142 -0.048756532 0.010253674 0.10465314
-0.026253747 -0.027872015 -0.010272089 -0.010985767 -0.004124305 -0.022758752 -0.03581797 -0.042240705
-0.18447535 -0.008234279 -0.017421404 -0.05346382 -0.053997993 0.07417268 -0.027090818 -0.017510235
0.0032246748 -0.0010990447 0.07568171 -0.06485463 -0.02858757 -0.012803947 -0.009024259 -0.02198995
-0.009850993 0.01616833 -0.032263298 0.077420585 -0.011500707 -0.029075323 -0.003423076 -0.0017561399
-0.012123109 0.00013015255 0.09373239 -0.057356406 0.013693373 0.031734575 0.004821992 -0.06994643
0.003544638 0.07406936 -0.07905919 0.017146656 0.0044687283 -0.027753362 0.040002763 -0.00563848
-0.08045102 -0.0018512987 0.07176811 0.08028883 0.10444171 -0.07306121 -0.037980366 0.040270586
0.0185624 0.050712887 0.025065405 -0.061873622 -0.010411966 0.008908793 0.03490584 0.07853831
-0.05159843 -0.12396237 0.08982335 -0.17624694 -0.11774586 -0.06853477 -0.15261504 -0.15036984
-0.11920331 0.14725234 -0.14592846 0.17527395 0.17264456 0.10665347 0.1729503 -0.14683379
-0.05997424 -0.043643467 0.022646384 -0.06951438 -0.07291296 -0.020895077 -0.077094235 -0.049331147
-0.07796071 0.09891731 -0.10344457 0.09895045 0.04234488 0.07354273 0.041668784 -0.07315359
0.019578082 -0.042405605 -0.07324749 -0.09888787 -0.08858587 0.0005812746 -0.029189933 -0.11025889
-0.09347914 0.09288799 -0.08931205 0.04783316 0.08291399 0.077993885 0.02694814 -0.0783614
-0.074958004 -0.13688073 0.088167444 -0.180676 -0.17637219 -0.15089412 -0.124710284 -0.12045055
-0.0980712 0.18740517 -0.17159922 0.15676603 0.12709944 0.13437332 0.16433777 -0.17038925
-0.017926672 -0.06689591 -0.10709862 -0.025706746 -0.03535358 -0.0011584398 0.0069955355 -0.031914387
-0.06845962 0.035665024 -0.027272757 -0.0039580553 0.060580608 0.03054427 0.009385255 -0.01688483

emb.genre.weight f4 [18, 16]
00000000: d42c 9d3b 2175 8c3e cdb2 43be f635 9ebb
00000010: 4d79 043c a384 3cbe 619a 9d3e 6f8f fd3d
00000020: f309 163e 78d7 96be 56d3 8dbe b0e3 9abd
00000030: a4aa 0bbe 6276 483d f0c3 ec3d 4131 663d
00000040: 3ef7 b23e 446f a8be d827 88bb e677 dcbd
00000050: 62b6 8d3d da5c 19be a9fa c53d 1250 633e
00000060: 9ab7 63be 52c4 a13e 13f3 083c 49d7 023c
00000070: 68ae 933e 5cb5 5fbc b3a0 b9be 1a83 8c3e
00000080: 17ec 183e 63e3 413d 1006 a9be 1e63 f93e
00000090: 7e08 36be 25e2 bfbe 5ac2 bfbd 7311 d9bd
000000a0: d868 903d 03b9 21be 8b59 d3bc d097 f8be
000000b0: 98a6 e0bd 8c4f e4bd edde ae3d dc31 87be
000000c0: b03c 81be c9bd c4be 4177 6239 525e 79bd
000000d0: e61f 75be 7892 023e f546 5abe 029a 50be
000000e0: af67 253e 291b 44bd a68b b9be a4d9 cbbe
000000f0: d342 803d 414a 023e f06c b2be 285c cebe
00000100: 379a 593d 861f 26be 3a26 82be e218 7b3e
00000110: 243a 12be 2414 f63c c6ee d73c 4ad1 513e
00000120: d976 863e 8fbc 9b3c 1bd1 a9be 064e 26be
00000130: 23d2 39be 6cc8 05be e818 f23d ef55 83bd
00000140: 48ad 563d a877 cabd f9f8 9c3d c82a 383e
00000150: 0324 99bb 6d04 9f3e 54a4 303e 81ca 82be
00000160: c163 183e 1ec2 dabe 46ae ec3d 1b4f a63e
00000170: 4789 8cbe ddfb d53e 64ab 653e f8da a13e
00000180: f939 10be efdf 37bd ac21 78be edbd b2bd
00000190: 9bcc 463e a3a2 ec3e f935 93be 7ae8 573e
000001a0: bd8b ae3e bdfe 13be f7ae b5bd 3c0c 33bd
000001b0: 660c e43c 9240 d03e 1a28 6b3d 42d3 6abe
000001c0: 4268 09be 5685 b33d 1de5 413e ff78 07be
000001d0: ec22 943e a8da 373e b0c1 bbbe 42c6 d33d
000001e0: fd53 503e 4224 f7bd a95e 853e df39 76be
000001f0: b04d 3e3e 1b9b aa3e fbe8 40be 186d a2be
00000200: 5f99 713e e154 b2be 7a75 8f3e ac03 bbbd
00000210: ca08 e23d dea1 183e cd39 b9be ab88 c93e
00000220: 152d 5e3e 71b8 2ebd 596b 173c 3a63 c23c
00000230: 0906 0c3e 7ba3 033e 6f41 90be 4224 72be
00000240: c841 903e e464 0e3e d025 e63d 7d4e 6b3e
00000250: d755 883e d2c2 3a3d 2200 08bd 869e 49bc
00000260: b588 253e e658 403e 4147 963e dab5 0fbe
00000270: f490 a7be 3af8 51be 0e66 073e 5abf 0f3e
00000280: 8d53 aa3e e41b 4bbe 175f 173e c319 003e
00000290: 5c18 79bb e094 dfbd 18ab de3e 8dce e93d
000002a0: 1505 53bd 7706 7bbe 1370 8d3d de8a e5be
000002b0: a9e4 173e ab89 813e df48 7e3e 014c 78be
000002c0: 33df b4be 7605 e13d 188d 883e 7e1e 293e
000002d0: 1191 81bd 1845 18bd d3b5 5cbd 3fa2 febd
000002e0: fcd9 1f3e e411 dd3e f030 923d 4276 c13e
000002f0: 098a 8c3e e4f5 fb3b 41ed 23be f957 c6be
00000300: fd6a 943d 8d86 823e 270b b53e 942f a93e
00000310: 683b 633e e90d 0cbe f5be 913d ce35 8abe
00000320: eeb2 7b3e d643 d1bb e77a 94bd 345a 8b3e
00000330: 7c44 34be 0313 7d3e c2a3 953d 3626 873d
00000340: 44ab 90be b71d 83bd 1c60 d5bd f680 ba3e
00000350: 0788 09be db77 7bbd 1501 d6be e8c4 a93e
00000360: 3afd 42bd 7054 8e3e f3b4 9abe 2421 093e
00000370: e486 0e3e dc88 85bd aafa 23bd 9436 2e3e
00000380: c7d5 493e 2232 c23c 7fba 273e 8a20 2abe
00000390: 0416 85be ea82 6d3e d1cb 3bbe bcd3 213e
000003a0: 17a4 4dbd 47aa b0be 7b7b 6c3e 2858 65be
000003b0: a8f2 6c3d 0a68 13be dbe4 833d a959 83be
000003c0: d278 313e a183 4a3e 8b48 f1bd 7e4b 583d
000003d0: 5f47 733e 8cf7 813e 97cf 29bd 2d94 e93d
000003e0: daca 9e3d 48b6 233e 1dfe a13c c8ed 2dbe
000003f0: 0007 5cbe 4129 ab3e 31b5 50bd 7a21 42be
0.0047966037 0.27433112 -0.19111176 -0.00482821 0.008085561 -0.18409972 0.30781844 0.123808734
0.14652233 -0.29461265 -0.277003 -0.07562959 -0.13639313 0.048941024 0.115608096 0.056199316
0.34954256 -0.3289739 -0.0041551404 -0.10765056 0.069195524 -0.14976826 0.0966695 0.22198513
-0.22238007 0.31595093 0.008358735 0.007985898 0.28844 -0.013654079 -0.36255416 0.27443773
0.14933811 0.047335993 -0.33012438 0.48708433 -0.17776677 -0.37477222 -0.093632415 -0.10599031
0.07051247 -0.15793233 -0.025799533 -0.48553324 -0.10969275 -0.11147985 0.085386135 -0.26405227
-0.25241613 -0.38426045 0.00021597465 -0.060880966 -0.2393795 0.12751186 -0.2131613 -0.2037125
0.16152833 -0.047877464 -0.36239356 -0.39814484 0.06262746 0.12723638 -0.34848738 -0.40304685
0.053125586 -0.16222963 -0.2541979 0.24521211 -0.14279991 0.0300389 0.026358973 0.20489994
0.2626255 0.01901081 -0.33167347 -0.16240701 -0.18146567 -0.13064736 0.11821157 -0.06412875
0.052411348 -0.09886104 0.07664675 0.1798507 -0.0046734824 0.31058064 0.17250186 -0.25545123
0.14881803 -0.42726225 0.115566775 0.32482228 -0.27448484 0.4179372 0.22428662 0.31612372
-0.14084615 -0.044891294 -0.24231595 -0.08727632 0.19413988 0.46217832 -0.28752115 0.21084777
0.34090987 -0.14452644 -0.088712625 -0.04371284 0.027837943 0.40674263 0.05741129 -0.22932151
-0.13418677 0.08765666 0.18935056 -0.1322975 0.28932893 0.17954504 -0.3667121 0.10340549
0.20344539 -0.120674625 0.26048782 -0.24045514 0.18584323 0.3332146 -0.18838875 -0.31723857
0.23593663 -0.34830382 0.28019315 -0.0913156 0.11036833 0.14905497 -0.3617691 0.39362082
0.21696885 -0.042656366 0.009241902 0.023728956 0.13674177 0.12855332 -0.28174922 -0.23646644
0.28175187 0.13905674 0.11237681 0.2297916 0.2662799 0.04559595 -0.03320325 -0.012305861
0.16165431 0.18783912 0.29351237 -0.14034215 -0.32727778 -0.20504847 0.13222525 0.14037839
0.3326687 -0.19834858 0.14782368 0.12509827 -0.0038008904 -0.109170675 0.4348991 0.114163496
-0.05151852 -0.24514185 0.06906142 -0.4483251 0.1483332 0.25300345 0.24832486 -0.24247743
-0.35326537 0.1098737 0.26670146 0.16515538 -0.06326497 -0.037175268 -0.05388434 -0.1243329
0.15610498 0.43177712 0.0713824 0.37785536 0.27449062 0.0076892246 -0.16008474 -0.38738993
0.07246969 0.2549328 0.3536007 0.33044112 0.2219063 -0.13677181 0.071165 -0.26994175
0.24579975 -0.0063862605 -0.07250004 0.27217257 -0.1760425 0.24714284 0.07306625 0.06599085
-0.28255665 -0.06402152 -0.10418722 0.36426514 -0.13430797 -0.0613936 -0.417977 0.3315804
-0.047604777 0.27798796 -0.30216178 0.13391548 0.13918644 -0.065202445 -0.040033974 0.17013007
0.19710456 0.023705546 0.16379736 -0.16613975 -0.2599336 0.23194471 -0.18339469 0.15803427
-0.050205316 -0.3450491 0.23093979 -0.2239691 0.057848603 -0.14395157 0.06440135 -0.25654343
0.17331246 0.19776775 -0.117814146 0.05280637 0.23757695 0.25384176 -0.04145774 0.114052154
0.077535346 0.15987504 0.019774491 -0.16985238 -0.21487045 0.33429912 -0.050954048 -0.18958083

lin.gender.weight f4 [2, 1]
00000000: f61a bb3d 54cc 0dbd
0.09136002 -0.03461869

lin.age.weight f4 [7, 1]
00000000: 38dd 28bc fe75 ff3c 5946 3dbd 8bf7 163c
00000010: 2cc5 b33d b500 d8bb c603 a0bb
-0.010306649 0.031184193 -0.046209667 0.009214292 0.08777842 -0.006591881 -0.0048832623

lin.occupation.weight f4 [21, 1]
00000000: ca03 883d 61f5 28bc 4610 6e3c ca18 babc
00000010: 3f5c 12bd ca47 333b 481a 1e3d 65e8 b1bc
00000020: c7bd b73b fe3c bd3d 5cd2 15bd eb47 11bb
00000030: 0397 ecbc f229 29bd 40c9 cbbc c7c5 e43c
00000040: 7e0d 29bc 40d9 0b3d 5895 7cbd e68e c03d
00000050: 297f 80bc
0.06641348 -0.010312409 0.014530247 -0.022716898 -0.035732504 0.0027356022 0.038599283 -0.02171726
0.00560734 0.09240149 -0.036577567 -0.002216811 -0.028880602 -0.041299768 -0.024876237 0.027926339
-0.010318158 0.034142733 -0.061665863 0.09402256 -0.015685635

lin.item_id.weight f4 [3883, 1]
00000000: 7ecd 553e 398e b03d 89f6 293d 05a8 533c
00000010: e2d2 0d3d b627 c13d c69a bc3d 4878 283c
00000020: 41ae bfbc 5d30 b2bc 0637 053d 27ca 65bd
00000030: e5e5 57bd 7c76 89bd 5560 82bd 3486 68bd
00000040: 7e23 e73c 2d38 81bd 1f9e 0bbd ae37 87bd
00000050: c2df a6bc 6349 83bd 062f 72bd abdc a6bc
00000060: 443c 0bbc b6cc cdbc 5f16 6fbd e431 48bd
00000070: a9e7 50bd 233b 46bd 4e2e 4fbd 562b d33c
00000080: 0278 89bd 2a1f 913d b883 39bd b708 bc3a
00000090: 2078 0bbd bd08 84bd 4ae8 f7bc 3d75 68bd
000000a0: 61a3 a8bc 5748 60bd 1825 49bd 4511 69bd
000000b0: eec3 57bd 11e3 6ebd dc08 85bc 6e81 c2bd
000000c0: ba4b 57bd 4ca1 573d 9687 8dbd 78b5 37bd
000000d0: 67a7 5cbd 7af3 9cbd b8ce 95bd 7137 94bd
000000e0: 199d 4dbd 4a3b 093c 4eed 88bd a455 8bbd
000000f0: 7fdd 54bd 2599 73bc 7641 74bd 2e86 78bd
00000100: aeb9 77bd 3d53 23bd 42f7 81bd d9b7 7abd
00000110: 1028 5cbd 4801 44bd b94a 36bd 9211 68bd
00000120: 0588 5fbc 4e96 55bd 2e28 8bbd 48de 8abd
00000130: e235 3bbd bab7 88bd 67ae 73bd 4d11 81bd
00000140: 885c 7fbd 820f 8bbd fe5f 6cbd 197d 5ebd
00000150: b123 78bd b4c4 9fbd 9dfc 6bbd 536a 60bd
00000160: 68d3 98bd c7e9 7fbd fafa 71bd 201a 90bd
00000170: 219a 86bd 185d 0bbd 9700 79bd 7e92 70bd
00000180: d201 b6bd 6fbe 68bd e506 54bd 10e1 2cbd
00000190: 9c08 8abd d161 79bd 1e94 96bc 7e6f 37bd
000001a0: cba4 81bd 5d81 41bd 4591 67bd bb50 8fbd
000001b0: 4e3d 983d f719 823c b9b9 71bd 0cb3 83bd
000001c0: 7925 93bd b14c 85bd b015 2dbd 6a6d 6bbd
000001d0: 6280 3abd 89f5 77bd 4c89 77bd 5753 77bd
000001e0: 9511 7dbd b676 2ebd 530c 2bbd 2391 5abd
000001f0: 8b71 94bd a934 5dbd fa2a 5dbd 3915 6ebd
00000200: 3ba0 87bd 5ef7 53bd 9fd5 7ebd 68b9 77bd
00000210: 1899 46bd dd88 84bd 4ab7 4fbd 48ad 67bd
00000220: 08b4 89bd 27ba 8abd 91f7 7cbd fbdc 05bd
00000230: ba36 7cbd 534a a8bd 7879 06bd 85d9 5fbd
00000240: 4b73 6bbd f826 89bd 263c 6fbd 5d23 87bd
00000250: e0ad b23a b00e f8bc 52fe 70bd fe61 2dbd
00000260: 36c9 1abd 3caf 83bd efde 23bd 69d3 5cbd
00000270: c187 6abd 6898 5fbd f114 70bd acfa 8abc
00000280: 8605 09bd 2dfa 83bd fe59 96bc 6fe8 2dbd
00000290: 2957 a0bd 4f15 4bbd 4065 a4bd 33bc 98bd
000002a0: ab66 30bd df0a 69bd a7fc 74bd acf6 5cbd
000002b0: c60e 6bbd e8bc 52bd 4a5b 65bd 21f7 84bd
000002c0: ad92 44bd e6d0 80bd 6a65 33bd 2c0c 8bbd
000002d0: 7772 7fbd d98a 68bd b61f 5dbd 6fb4 56bd
000002e0: a556 5abd 7c51 21bd 5f07 9dbd 8826 68bd
000002f0: 3c9b b4bd 9a37 90bd 08e5 82bd 4aa6 55bd
00000300: 8abd 31bd eab5 3cbd 316a 91bd 1312 73bd
00000310: e208 7abd 7c31 12bd fc92 86bd 1ebd 71bd
00000320: 30e2 9dbd 0dfb 88bb 69e3 ffbc 0568 d5bc
00000330: 2197 debc b5ec f83c b101 42bc a719 41bd
00000340: e607 a0bd c67a e9bc 2b1a 69bd 45bd 1a3d
00000350: fe50 5dbd 6761 28bc 06a2 e739 c8eb 37bd
00000360: eb45 efbc bcd3 39bd b727 91bd ceab 263c
00000370: 1212 bd3d 4ca5 adbb 5c8a ebbc d40d 51bd
00000380: 46ff 3abd ce2d 77bd afd6 41bd fe24 003d
00000390: a8ae 3a3c cdf5 7339 257e 95bc b048 f2bc
000003a0: 516d 213d e401 0ebc 4f2f 10bd 9649 aebd
000003b0: 05b8 1ebd bb32 44bd 477f 82bd cae3 2bbd
000003c0: 1cfe 5ebd 29b9 87bd 1744 75bd 864e db3d
000003d0: 80aa 3f3d aa14 95bd 0a91 dbbc e10b 6fbd
000003e0: dcf1 8bbd 22b3 d0bc dbf0 503d 185b a0bd
000003f0: 33d2 75bd c11a 5abd 9db3 4ebd a17a 11bd
0.2087917 0.08620877 0.04149488 0.012918477 0.03462494 0.094314024 0.09209208 0.010282584
-0.02339852 -0.021751577 0.032523178 -0.05610099 -0.05270948 -0.06712052 -0.0636603 -0.05676861
0.028215166 -0.06309543 -0.034086343 -0.06602417 -0.020370368 -0.06410482 -0.059126876 -0.020368895
-0.008498255 -0.025122028 -0.058370944 -0.048875704 -0.05100218 -0.04839624 -0.05058127 0.0257775
-0.06712343 0.07086022 -0.045291632 0.0014345859 -0.034050107 -0.06446979 -0.030262131 -0.056752432
-0.020585718 -0.05475649 -0.04910764 -0.056901235 -0.052677087 -0.058322016 -0.016239576 -0.09497343
-0.052562453 0.05264406 -0.069106266 -0.044850796 -0.053870585 -0.07663627 -0.07314819 -0.07237137
-0.050198648 0.008375952 -0.06685887 -0.06803444 -0.051969048 -0.0148680555 -0.05963274 -0.06067484
-0.060479812 -0.039874304 -0.06345989 -0.061210487 -0.053749144 -0.047852784 -0.044504855 -0.05665738
-0.013643269 -0.052145295 -0.06794773 -0.06780678 -0.045705684 -0.06675668 -0.059492495 -0.06302128
-0.062344104 -0.06790067 -0.057708733 -0.05431852 -0.060580913 -0.0780119 -0.057613958 -0.0547889
-0.074621975 -0.062478807 -0.05907724 -0.07036233 -0.065723665 -0.034024328 -0.06079158 -0.058733456
-0.08887066 -0.056822237 -0.051764388 -0.042206824 -0.06739923 -0.0608843 -0.018381175 -0.04478406
-0.0633026 -0.04724251 -0.056535024 -0.0699782 0.07433568 0.015881522 -0.05901501 -0.06430635
-0.07184882 -0.06508768 -0.04225701 -0.057477392 -0.04553259 -0.060536895 -0.06043367 -0.060382213
-0.061784346 -0.04259368 -0.0417598 -0.05336107 -0.07248219 -0.0540053 -0.053996064 -0.05812571
-0.066223584 -0.05174958 -0.062215444 -0.06047955 -0.048485845 -0.06471417 -0.050711907 -0.05656174
-0.06723791 -0.06773787 -0.061759535 -0.032681447 -0.06157563 -0.08217301 -0.032830685 -0.054650802
-0.057483 -0.06696886 -0.05840697 -0.06598542 0.0013632141 -0.030280441 -0.05883629 -0.04232978
-0.037789546 -0.06429908 -0.040007528 -0.053912554 -0.05725837 -0.054588705 -0.05861372 -0.016965233
-0.033452533 -0.064442016 -0.018353458 -0.042457994 -0.078291245 -0.04958087 -0.080271244 -0.07457771
-0.04306666 -0.056895133 -0.05981126 -0.053946182 -0.057387136 -0.051449686 -0.055995263 -0.064924486
-0.047991443 -0.06289844 -0.043797888 -0.06789431 -0.06236502 -0.05677304 -0.05398532 -0.05241817
-0.053305287 -0.03938435 -0.076674215 -0.05667737 -0.08818671 -0.07041855 -0.063913405 -0.05216054
-0.04339365 -0.046071924 -0.071003325 -0.05934341 -0.061043628 -0.035691723 -0.06571004 -0.059018247
-0.077091575 -0.004180318 -0.031236367 -0.026050577 -0.027171673 0.030386308 -0.011841224 -0.047143605
-0.078140065 -0.028500926 -0.05690972 0.037778158 -0.05403232 -0.010277129 0.0004418047 -0.044902593
-0.029208144 -0.04536794 -0.07087653 0.010172797 0.09231962 -0.005299246 -0.028752498 -0.05103858
-0.045653604 -0.060346417 -0.04732388 0.03128528 0.01139418 0.00023265854 -0.018248627 -0.029575676
0.039410893 -0.008667443 -0.035201367 -0.08510129 -0.038749713 -0.047899943 -0.063719325 -0.041965283
-0.054441556 -0.06627113 -0.05987939 0.107083365 0.04679346 -0.07279332 -0.026802558 -0.058360938
-0.068332404 -0.025476042 0.051010948 -0.07829875 -0.060014915 -0.05324817 -0.05046426 -0.03551734

lin.genre.weight f4 [18, 1]
00000000: 9180 873c 2173 d13d 9e6c 0b3e 8654 96bc
00000010: e0a1 7abc 55cf d5bc 34c5 c6bd 79bb 02ba
00000020: 9730 a1bd 2a47 3f3d d144 7abd ef51 173d
00000030: 49b0 5e3d 5833 cebd df26 62bd 2eb4 b2bd
00000040: 3662 b1bd cdc7 30bd
0.016540797 0.10227037 0.13615653 -0.01835085 -0.015297383 -0.02609984 -0.09705582 -0.0004987042
-0.07870596 0.046698727 -0.061100785 0.036943372 0.054367337 -0.10068387 -0.05521285 -0.08725773
-0.086613104 -0.043159295

dnn.0.weight f4 [128, 80]
00000000: 54fb f83c ea5f 903d 7684 223d f024 6cbd
00000010: 9f73 e13d d370 a7bd 130f 9cbd 3add 523d
00000020: a36c ecbd 12a7 83bc 1c69 d8bc d3c7 e53d
00000030: 6782 29bd a510 06bd ef6e 64bc c239 90bd
00000040: 3dec 883d 0f77 73bd fb5c 96bd 029d b83d
00000050: 6e1f 6e3b 00dd d2ba 5a6d 9cbd 756a b73d
00000060: 046b 79bc 677a 793c 5299 3b3d 73b7 b3bd
00000070: a6b5 94bd a587 013e 479f 7f3d 7756 b53d
00000080: 330d c43c 0fea 6e3d 0df8 22bd b003 623d
00000090: 4152 4dbd 3459 ec3d 3f7d bc3d 9534 21bd
000000a0: d9e5 06bd 8655 e2bc a674 debd a65d 84bd
000000b0: 21bb 87bd 215d a93c c9d3 053e 148f 703d
000000c0: 7f55 863c 5973 18be b3df b73e faee 4bbe
000000d0: 447e 15bd f427 4bbc 15cd 64bd 33a4 4dbe
000000e0: 13b4 193e 60d0 8c3d 455a 4cbe d7f0 8e3e
000000f0: 54b2 183e 2fc7 8bbd c1c3 873e 75ba 9dbe
00000100: bb6d 19bd e0c4 4abd 45d2 af3d c6fb e43c
00000110: ecd5 983c 9e22 2d3e 2ae0 883c 1f23 bf3d
00000120: 5392 debb f392 27bd 5499 2b3d c06b bfbd
00000130: 0d7e e2bd 3a01 a83c 0768 d03c 8aec 9fbc
00000140: 216a 98bd 6573 35bc ae78 e53b 24a3 26bd
00000150: 651f 1e3c 01f6 0b3e 3849 f2bb 8c1e 183e
00000160: ea6d 53bd 11b6 603d 6b51 cbbc 63e1 19bd
00000170: f3ae c3bc cd5b fc3c 534a 073b 878b 3ebd
00000180: b597 903c d7dd b6bd 5da2 febd 578b 4abd
00000190: d44e 213d 3958 4f3d 75c9 183d cc53 ea3d
000001a0: ae02 9f3d f357 dcbd ed9a 0b3e e833 173d
000001b0: c5af 093d 6902 d13d 5dcf adbd 8e79 1fbd
000001c0: 5fb3 dbbd 19b6 813b 547d ddbd 8533 043d
000001d0: c1a6 113e 65f3 0cbe 17ed 06bd 0b8a 6e3d
000001e0: 829c b03d d31c 32bd 6f47 f239 5044 d3bc
000001f0: ba85 283e 86a4 b5bc d8fc e8bd be3d a73d
00000200: 2d7e cabd 9f56 6dbe 0c4d dc3d d27c 56be
00000210: f8e8 f7bb df2a 82be d830 d5bc 1e69 bfbd
00000220: fc9f 4abe 7911 973e 79dd 39be 5778 533e
00000230: 3999 0a3e 210c 3d3e 7fdd 7d3e 1f68 48bd
00000240: 1c9f 47bd df3b 47bd cc88 1e3e 75e7 37bd
00000250: c350 983d 03f5 df3b ae85 c1bd 9f55 763c
00000260: 6e7e 0a3e ec2f 4a3d 2dd4 b93c 5a57 8a3b
00000270: 637a 763d 4a29 8fbd 1973 d4bd 97c2 393d
00000280: baac 32bd e3fa b9bd 8165 98bd 472d c1bd
00000290: 727e f8bc b543 17bc 3046 e5bd 3ee4 433c
000002a0: b0c3 d1bc 7d39 27bc 4d32 1f3d 4f03 ccbd
000002b0: 9c10 ae3d 6cb6 343d 08ec 003c 23c1 173a
000002c0: aad7 07bd a67f 223e 4c1d b5bd 50dc 9c3d
000002d0: caee 6abd 4c05 8d3c eed8 7c3c e431 e33c
000002e0: d891 0f3d 6e27 41bd 74b7 f3bc dc4d 41bd
000002f0: 7349 2d3d 7e52 a53c a2f4 bfbd 1b01 c1bd
00000300: 0358 98bd 932a a0bd 9d36 c6bd 37fd a63d
00000310: 7b00 d13d 62a0 8ebd eea1 27bd bd5a 113e
00000320: 2aeb 4e3d 623e 8dbd eb70 e23d 0b4b 2b3d
00000330: a371 7fbc 1fca 2f3d 9547 8b3d 7dc6 803d
00000340: 34e9 523e cfce 40be e432 093e 51f0 b8be
00000350: 594d 5cbe d270 843d e5e0 8bbd 9a5a c4bd
00000360: 712c adbd 9e0f 2b3e f78e 94be f674 1c3e
00000370: c080 853e 0425 553c eca0 073e af21 47be
00000380: 3820 833c a3ea ea3d c9f0 b23d 4bcc 87bc
00000390: 201b 383d bd81 2e3d e387 e2bc 2071 0e3d
000003a0: b092 68bd 7270 533c 0405 5fbc 2a9d 3fbd
000003b0: 196f 193e c25d 1bbd 523b 2e3d bd5d 783d
000003c0: 5a38 8fbd 3efd f6bc e0c0 303d 2d08 32bd
000003d0: a878 6b3d bea9 fd3d a2e5 733d d9ae 88bd
000003e0: bad5 a5bd 143a 0b3d 555f 3ebd 34ee c03d
000003f0: 44ce f83c f980 21bd 784a 0dbd 491a d53c
0.03039328 0.07049544 0.039677106 -0.057652414 0.11008381 -0.081758164 -0.07620063 0.05148051
-0.11544158 -0.016070876 -0.026417308 0.11219754 -0.041384127 -0.032730717 -0.013942464 -0.070422664
0.06685684 -0.059439715 -0.07341953 0.09014322 0.0036334652 -0.0016087592 -0.07638045 0.08955852
-0.015223268 0.015226937 0.045800515 -0.087752245 -0.07261209 0.126494 0.062407758 0.088543825
0.023932075 0.058328684 -0.03978734 0.055179298 -0.05012727 0.11540452 0.09203576 -0.039356787
-0.032934044 -0.027628671 -0.10862093 -0.064631745 -0.06627489 0.02067429 0.13069071 0.0587302
0.01639819 -0.14887752 0.35912856 -0.19915381 -0.03649737 -0.012399662 -0.055859644 -0.20082168
0.15010099 0.06875682 -0.1995631 0.2791812 0.14911777 -0.06825101 0.26516536 -0.30806318
-0.037458163 -0.04950416 0.085850276 0.027952086 0.018656693 0.16907737 0.016708452 0.09332871
-0.0067923455 -0.040911626 0.041894272 -0.093467236 -0.110591985 0.020508397 0.02544023 -0.01952197
-0.074421175 -0.0110748755 0.0070029115 -0.040682927 0.00965104 0.13668062 -0.0073939823 0.14855403
-0.051618494 0.054861132 -0.024819097 -0.03756846 -0.023887133 0.030805493 0.0020643666 -0.046519782
0.017650465 -0.08929031 -0.12433312 -0.04944929 0.039381817 0.050621245 0.0373015 0.11441764
0.07764183 -0.107589625 0.13633318 0.036914736 0.033614893 0.10205538 -0.08486817 -0.038934283
-0.10727572 0.0039584753 -0.1081492 0.032275695 0.14223768 -0.13764723 -0.03294095 0.058237117
0.086236015 -0.04348452 0.0004621106 -0.02578941 0.16457263 -0.022173177 -0.11376351 0.08166073
-0.09887347 -0.23177575 0.10756883 -0.20946053 -0.007565614 -0.25423333 -0.026024267 -0.093462214
-0.19787592 0.29505518 -0.18150891 0.20651375 0.13535012 0.18461658 0.24791525 -0.048927423
-0.048735723 -0.048641082 0.15481871 -0.04489847 0.07437279 0.0068346276 -0.094493255 0.015035062
0.13524792 0.049362108 0.022684181 0.004221839 0.06017531 -0.06990297 -0.10373516 0.04535159
-0.043621756 -0.09081056 -0.07441235 -0.09432464 -0.030333731 -0.009232451 -0.11195028 0.011956273
-0.025606006 -0.010206577 0.03886633 -0.099615686 0.08499262 0.044119284 0.007868774 0.00057889725
-0.033164658 0.15869007 -0.088434786 0.07659209 -0.057356633 0.01721444 0.015432579 0.02773375
0.035051197 -0.047156744 -0.029750563 -0.047193393 0.042306375 0.020180937 -0.09372832 -0.09424039
-0.07438662 -0.078206204 -0.096783854 0.08153766 0.1020517 -0.06964184 -0.040925913 0.1419477
0.05051724 -0.06896664 0.11056694 0.041819613 -0.015591058 0.042917367 0.068007626 0.06287859
0.20596772 -0.18828891 0.1339832 -0.36120847 -0.21513881 0.06466831 -0.068300046 -0.095875934
-0.08455742 0.16705176 -0.29015324 0.15278992 0.2607479 0.0130093135 0.1324498 -0.19446443
0.016006574 0.11470535 0.087373324 -0.016576907 0.044947743 0.042604197 -0.027652686 0.034775853
-0.056780517 0.012905227 -0.013612036 -0.046780743 0.14983787 -0.03793121 0.04253704 0.06063627
-0.0699317 -0.030150052 0.04315269 -0.04346483 0.057488114 0.123858914 0.059545167 -0.066739745
-0.08097406 0.033990934 -0.046477634 0.09420434 0.030371793 -0.03942964 -0.034494847 0.02601351

dnn.0.bias f4 [128]
00000000: de38 2dbd 68c8 9ebd ed58 523d 20fb 08bd
00000010: d823 96bd ff63 833d acea e03c b44e d93c
00000020: ab15 abbd e97d d03d 50af 32bd 6d4e 0bbd
00000030: abee 74bd 28f6 bcbc d817 95bd 8b8f 64bd
00000040: ab56 4ebd a103 29bd 2b4f 963c 7ddf 663d
00000050: 313d b43d e06a 4dbd 1c8d 193d 8cc9 91bd
00000060: 03c6 d9bc cedf 35bd a78a c33c 6ab1 54bd
00000070: 4f26 f83b 0ec2 03bd 16c4 a9bb 1354 debb
00000080: 34f7 8c3b ccf3 99bd 9b44 7bbc fce8 75bb
00000090: ec6e 48bd 8ca7 003e 75f4 d2bc b9b2 8c3b
000000a0: 744a 64bd bc24 efbc dc00 823d 520f 3abd
000000b0: 4531 3dbd 3545 c2bd 77d6 debd 4507 91bc
000000c0: 4395 95bd 37ec 083d 97ed a1bd e0c2 c5bc
000000d0: e6f0 b63d d452 923d 2073 e73c 1f90 a13d
000000e0: 5305 643d caf0 95bd 1ef3 b3bd 05d6 99bd
000000f0: 1a49 193d 3578 913d a719 5b3c 3485 75bc
00000100: 27d5 55bd 51e6 afbd 9566 8dbd dc4e a3bd
00000110: 77a7 033d 86f6 78bd 5f50 94bc 5c31 d1bd
00000120: 2cff cfbd 987a 66bd 3440 1cbc 66c6 a23a
00000130: 3c0c 9e3d d532 033d 1ace e0bb 8c25 82bd
00000140: 115f 273d f403 d1bd f0a1 46bd 0d84 f1bc
00000150: d8be c8bd 4e39 15bd b2b1 1e3c 5977 243d
00000160: 466e b23d f870 b9bd 8fc1 1abd 03b7 913d
00000170: 8ab5 263d fb09 ae3c 193d 31bd 17e6 983d
00000180: 0709 d9bd a4c2 8b3c fa7a c93b 09fa 0c3d
00000190: 54ae 283d d5e1 b0bd f6c3 383d 8041 423d
000001a0: e567 82bd ff33 9e3c 0550 013d af01 b5bc
000001b0: 022c af3c 6dd7 9e3c 13f3 083d 9fae 85bd
000001c0: 5808 833d cbb4 dabd 3f83 ad3d 45c4 c33d
000001d0: d007 0abd 2180 08bc be2b cd3c efd5 7fbc
000001e0: d3f8 a7bc c90e 7abd 3faa ddbc 0d8c 803d
000001f0: 3ef6 aebd 66dc 3f3b fa27 b9bd c35d acbc
-0.04229056 -0.07753068 0.051354337 -0.033442616 -0.073310554 0.06415557 0.02745565 0.026526786
-0.08353742 0.101802655 -0.043624222 -0.03401034 -0.059797924 -0.023066595 -0.072799385 -0.055800956
-0.05037562 -0.041263226 0.018348297 0.05636548 0.08800734 -0.050150752 0.037488088 -0.0711852
-0.026583677 -0.04440289 0.023869826 -0.051927008 0.007572926 -0.032167487 -0.005180846 -0.006784925
0.00430193 -0.07517204 -0.015336181 -0.0037522903 -0.04893391 0.12563914 -0.025751332 0.0042937663
-0.055735067 -0.029192321 0.0634782 -0.045424767 -0.046189565 -0.094858564 -0.1088075 -0.017703662
-0.0730386 0.033428397 -0.07906645 -0.024140775 0.089326665 0.071447045 0.028253138 0.07888817
0.05566914 -0.073213175 -0.08786605 -0.07511524 0.03742323 0.07103006 0.013372815 -0.014985371
-0.05220523 -0.08588851 -0.069043316 -0.079740256 0.03214213 -0.060781978 -0.01810473 -0.10214493
-0.10156092 -0.05626926 -0.009536792 0.0012418746 0.07717177 0.0320309 -0.0068605067 -0.06354818
0.040862147 -0.10205832 -0.04849428 -0.029481912 -0.098020256 -0.036431603 0.009685921 0.04015288
0.08712439 -0.0905475 -0.037782248 0.07114985 0.040700473 0.021244993 -0.043271158 0.07465761
-0.10597425 0.017060585 0.006148693 0.03441814 0.041181877 -0.08636824 0.045108758 0.047425747
-0.063674726 0.019311903 0.031570453 -0.02209553 0.02138329 0.019389832 0.03343494 -0.06527447
0.06398076 -0.10679015 0.08472299 0.0955892 -0.033698857 -0.00833133 0.025045272 -0.015614971
-0.02050439 -0.061049256 -0.027058719 0.062767126 -0.08543061 0.0029275655 -0.09040828 -0.021040803

dnn.3.weight f4 [64, 128]
00000000: 2914 e0bd 87dd 84be 4f28 90bc b33a babd
00000010: 63eb d4bc 651f d8bd d3cd 23be 7e2e 0cbe
00000020: 83f3 3fbe dfe6 b7bd f373 76be 3bcb a9bc
00000030: 63ad 2bbe 3359 f4bd f2c4 c7bd 1b34 293d
00000040: ceac 11be 6447 b8bd cc7e f4bc 51af 28be
00000050: aee3 43be 281f 16bd 4039 d5bc 318a 0ebe
00000060: 7bfc 56bd 7e3c 0fbe d5e0 d7bb e0b1 04bd
00000070: f7ec b5bd 24d4 a4be d13f 3fbe aa6c 44bd
00000080: 9639 1dbe 70f4 b23d 6512 4fbe dbdb 1bbe
00000090: 768a dbbd 0d27 6dbe 7cb3 cabd 8647 2cbe
000000a0: bbe2 c83c 7159 623d 8517 54be be4d d8bd
000000b0: 53bd 49be 359e 1dbe 773e dabd f364 4ebe
000000c0: 6811 013e 44be ecbd 7032 75bd 068c 2dbe
000000d0: e749 31bd c755 dcbd 45fd c6bd b817 a1bd
000000e0: 330b cbbd 309b 12be 3696 82bd b3a8 47be
000000f0: f57a 10be 9bd2 98bd 7105 dcbd 06bd 36be
00000100: 3b14 e2bd a81c 19bd 9928 35be 37b2 10be
00000110: a254 f33d a7f0 10bc b4ed 39be 0212 a3bc
00000120: 9b2a 833c 58ba 9cbe 408a bdbd 9afa 953b
00000130: df82 aebd 9c34 51be 1118 ddba 35fa 7cbd
00000140: 6658 b1bd 555e 993d cd63 72be cfa3 babd
00000150: 1546 26be 2fc2 a5bd 51bb c0bd 38db 6dbc
00000160: 364d 2abc 8583 09be a2ab 0cbe de7b c83b
00000170: 30c2 37bd cbd9 93bc 7748 eebc 9170 22be
00000180: c05c 3ebd 59e5 4bbe 02dd dbbd 38b9 e2bd
00000190: f14a c4bc 5337 8abe c481 e2bd 4be6 7ebe
000001a0: ce7d 0dbe cb64 51bd d811 debd 6773 82be
000001b0: 8bf2 23be 9055 d4bd 551c d0bd c92b 2ebd
000001c0: 85ea 18be dd70 c9bc 75fc b2bd db0c a0bd
000001d0: 4ef1 4dbe c15b 3fbc e660 53bd 0a5f 59bc
000001e0: 3040 48be 993b 1fbd 374b 02be ba4f ffbc
000001f0: 5262 3fbd 3011 7fbd 7070 65bd 12be 3bbe
00000200: 7d0e aabc bfff fcbd 0f47 21bd 59a7 6abd
00000210: f1f0 a9bd 81c9 8dbc c49a f3bd 5837 06be
00000220: cc0b 4dbd 69fc a8bd ee3d 3ebc a96d 883d
00000230: 1ce4 32be ec30 2b3d 8c34 873c a5e4 fe3d
00000240: 35d8 1f3d 6064 a23c d5d1 e4bd 87f6 19be
00000250: e0a5 86bd 0e63 d4bd b6c2 afbd 1605 e83b
00000260: 5e66 503c a69c 87bd c3b4 0abe 307f bbbc
00000270: 9ba7 343d 28d0 45be e9bc a03b 755a b7bd
00000280: f5fc 4f3d abff aa3d 7d46 9bbd 2952 d93c
00000290: 7ea0 2cbc e175 16be 6853 51bb 0e0c 9ebd
000002a0: ffdc 0d3d 1415 853d 3bf4 f7bd 27a3 b4bc
000002b0: 4a70 c2bd 836f 38be 776c f0bd d3e4 a3bd
000002c0: 851a e93d ef2b cebd d988 d6bd 4b92 cabd
000002d0: 6462 67bd 431d 233d c531 11be 74a1 e3bd
000002e0: a53d bdbd b6ad 00bd fc67 a2bd 4e22 cfbd
000002f0: ed34 933c 4306 8abd 104e 08bd a817 2e3d
00000300: 38fa fabd 8039 48bd 8917 d5bd 5c0b 35be
00000310: d79e 393d a925 e03b 3e9b 06bd 9575 143d
00000320: 507b 87bd 8a2c d2bc 6e09 8ebb 46ae b8bd
00000330: 61e1 8bbd 1fa4 b1bd a424 c6bb 81be bfba
00000340: a2e9 51bc 0f3d b63d c062 f13c 0abd a3bd
00000350: 0702 08bd 7a93 e6bc b063 a3bd 0aa2 103d
00000360: c785 b0bd f4f0 39be 3d42 dcbd a98a a43a
00000370: 8ac9 01be a1f0 9fbd d7bd e23c 8e64 acbd
00000380: 22fa 40bc 3a60 2abd f267 e7bc d54a 02be
00000390: 8192 79bc e09a bdbd d8e0 8ebd fa3f afbd
000003a0: 8914 d2bd 06cc 573d 3c55 7dbc 8cbe eebd
000003b0: c182 bdbb af39 76bc f915 10be 61fb 18be
000003c0: 7351 e6bc 9edb a7bd a75f 82bd f5ac 213b
000003d0: 525a 1dbd 0e56 93bd c743 a5bc 78c3 023d
000003e0: af4a bcbd 76f2 05be efc0 69bd 6e6c 38bb
000003f0: a9b8 1cbe c441 b6bc a60a ee3c 288a 63bd
-0.10941345 -0.25950262 -0.017597346 -0.09093227 -0.025991147 -0.10552863 -0.15996484 -0.1368961
-0.18745236 -0.08979582 -0.24067669 -0.02072679 -0.1676536 -0.11931076 -0.09754361 0.041309457
-0.14226076 -0.08997992 -0.029845618 -0.16473128 -0.19129822 -0.036650807 -0.026028275 -0.13919903
-0.052486878 -0.1398792 -0.0065880814 -0.032396197 -0.08883088 -0.321931 -0.18676688 -0.047955193
-0.15353999 0.08738029 -0.2022186 -0.15220587 -0.10719769 -0.23159428 -0.09897515 -0.16824159
0.024522176 0.05526108 -0.20712097 -0.10561703 -0.19701128 -0.15392382 -0.106564455 -0.20155697
0.12604296 -0.11559728 -0.059862554 -0.16947946 -0.04328337 -0.10758548 -0.09716276 -0.07865852
-0.099142455 -0.14317012 -0.06376307 -0.19497947 -0.14109404 -0.07462045 -0.10743225 -0.17845544
-0.11039015 -0.037380844 -0.17691268 -0.14130484 0.11881377 -0.0088464385 -0.18157083 -0.019906048
0.016011527 -0.3061092 -0.09254885 0.004576993 -0.085210554 -0.20430225 -0.0016868134 -0.061762054
-0.08659439 0.074886955 -0.23670883 -0.09113275 -0.16237672 -0.08093678 -0.09410728 -0.014517598
-0.010394385 -0.13429077 -0.13737348 0.0061182817 -0.044862926 -0.018048188 -0.029087288 -0.15863253
-0.046475172 -0.19911708 -0.10735513 -0.11070484 -0.023961516 -0.26995334 -0.11059907 -0.24892537
-0.13817522 -0.051121514 -0.10843247 -0.2547867 -0.16010492 -0.10367882 -0.10161654 -0.042522226
-0.14933212 -0.02458995 -0.087395586 -0.07814952 -0.20111582 -0.011679591 -0.05160608 -0.013267288
-0.19555736 -0.038875196 -0.12724005 -0.031165946 -0.046724625 -0.06227225 -0.056015432 -0.18334225
-0.020758862 -0.12353467 -0.039374407 -0.0572885 -0.08297909 -0.017307999 -0.118947536 -0.1310705
-0.05006008 -0.082512684 -0.011611445 0.06661541 -0.1746983 0.041794702 0.016504548 0.12445954
0.03902455 0.019823253 -0.11172835 -0.15035449 -0.06574607 -0.10370456 -0.0858206 0.0070806844
0.012719719 -0.06621675 -0.13545518 -0.022887796 0.044105154 -0.19317687 0.0049053323 -0.089528
0.050778348 0.08349546 -0.07581804 0.026528435 -0.010536311 -0.14693405 -0.0031940583 -0.07717143
0.034634586 0.06498161 -0.1210713 -0.022050453 -0.09494074 -0.18011288 -0.11739438 -0.08002629
0.11382011 -0.100669734 -0.1047532 -0.098911844 -0.056490317 0.039822828 -0.14179142 -0.11114779
-0.092402734 -0.031415664 -0.0792999 -0.10113965 0.017969573 -0.067394756 -0.03327757 0.04250303
-0.12254757 -0.04888296 -0.104048796 -0.17680115 0.045317497 0.006840427 -0.032862894 0.036244947
-0.06615317 -0.025656004 -0.00433462 -0.09017615 -0.06830097 -0.08673882 -0.0060468484 -0.0014628918
-0.01281205 0.08898365 0.029466033 -0.07995041 -0.03320506 -0.028146494 -0.07977998 0.035310782
-0.08619266 -0.18158323 -0.107548214 0.0012553531 -0.12674537 -0.07809568 0.027678413 -0.08417617
-0.011778386 -0.041595675 -0.028247807 -0.12723859 -0.015232683 -0.09258056 -0.06976479 -0.085571244
-0.10257823 0.052684806 -0.015462216 -0.11657438 -0.0057834093 -0.015028401 -0.14070882 -0.14939643
-0.02811501 -0.081961855 -0.063659005 0.002466974 -0.038416214 -0.07194148 -0.02017392 0.031924695
-0.09193932 -0.13080773 -0.05706876 -0.00281408 -0.15304817 -0.022248156 0.029057812 -0.055551678

dnn.3.bias f4 [64]
00000000: bad4 013e 7d5c 303e 634c e63c 16e3 8d3d
00000010: 5573 d3bc c8c2 ff3c 9c94 613b ac0e 1a3e
00000020: 1b99 2c3d 8735 91bc 5885 593d bf4b 053d
00000030: 8588 44bd b22e 94bd 37f2 3b3e 5b0c a53d
00000040: 904c 313d 6fbc a8bd 03ba 9abd 0f50 31bd
00000050: 20be 493e d565 1d3d 56ac 643e 1098 2c3d
00000060: 3a05 93bd fd42 c6bd 1be8 c0bd c579 7fbd
00000070: abf9 153d 85ef 6ebc 0ce0 313e 1af4 95bc
00000080: 5b4f eabd 85d3 2f3e abcf 083d 2297 323e
00000090: c881 bc3c 9325 203e 1325 0abd 39e7 62bd
000000a0: 5fdf afbd 14d3 7dbd b42f b9bd 2e68 8cbd
000000b0: e91b 0d3e 35c2 2b3e 3d33 c3bc febb 68bd
000000c0: ac6c 74bd b1a9 7cbc f69b 923c 05f9 373d
000000d0: 7e25 e53b 8022 13bd 47b5 d539 433f 093e
000000e0: f7df 9e3e 4d61 723e 841d b03b e539 cdbd
000000f0: e0eb 63bb aa63 f8bc 9e43 a33c fb9d 58bd
0.12678805 0.17222781 0.028112596 0.06928079 -0.02581183 0.031220809 0.0034420853 0.1504466
0.0421382 -0.01772572 0.053105682 0.03254294 -0.047981758 -0.07235469 0.18354116 0.08058997
0.043285906 -0.08239066 -0.0755501 -0.04328924 0.19701433 0.038427193 0.22331366 0.042137206
-0.07178731 -0.09680746 -0.094192706 -0.062371988 0.036615055 -0.014583473 0.17370623 -0.018304873
-0.11440917 0.17170532 0.033401173 0.17440465 0.023011103 0.15639333 -0.033726763 -0.055396292
-0.085875265 -0.061968878 -0.09042302 -0.06855808 0.13780178 0.16773303 -0.023828143 -0.05681991
-0.05967395 -0.015421317 0.017896634 0.044915218 0.006992995 -0.035921574 0.00040761588 0.13403039
0.31030247 0.2366993 0.0053746123 -0.10020808 -0.0034778044 -0.030320961 0.019929703 -0.052885037

dnn_out.weight f4 [1, 64]
00000000: d7ab 803e 88db 693e a987 e5bd 12cd 623e
00000010: 5502 1fbe a769 c2bd 8337 b4bd bfb4 d33d
00000020: 9cc7 283e 084a 863d 09aa babd 1cfc a0bd
00000030: e6dc d73d 393d 15be a89f af3e 2375 193e
00000040: 12a3 bfbd 262c 623d e700 013c 009b 9c3d
00000050: a6fa a73e e871 0ebe ce78 823e 4e18 dabd
00000060: 5865 16be 2f66 a43d f932 ad3d ca9a 213d
00000070: 08c6 d1bd c998 11be 99b6 293e cb3e ca3d
00000080: 011a 21bd 06d9 3e3e 080d 95bd ecdd 453e
00000090: 077d 0abe 9c2f 983e 8af2 03be 29fb f5bd
000000a0: 5f61 413d 2f11 96ba 8d06 bd3d 5bdd b93c
000000b0: a8f0 113e 0455 b63e 74d9 9bbd 3dd6 34bb
000000c0: 5888 12be 54e7 f1bd 797a fbbd 5012 05be
000000d0: cfed d9bd 3e83 c6bd b96d b6bd 384d 4a3e
000000e0: 2034 773e 123f 9b3e dd3f 17be 2880 e4bd
000000f0: 4388 a8bd 6824 b3bd a841 05be 177d 05be
0.25131103 0.22837651 -0.11207516 0.2214854 -0.15528233 -0.09492808 -0.087996505 0.10337209
0.16482395 0.06557089 -0.09114463 -0.07860586 0.1054018 -0.14574136 0.34301496 0.1498609
-0.09357275 0.055217884 0.00787375 0.076467514 0.32808417 -0.1391064 0.25482792 -0.10649167
-0.14687097 0.080273025 0.08456988 0.03945426 -0.102428496 -0.14218439 0.16573562 0.09875258
-0.03933144 0.18637475 -0.07277876 0.19322938 -0.13524257 0.29723823 -0.1288549 -0.120107956
0.047212 -0.0011449213 0.09229765 0.022688558 0.1425196 0.35611737 -0.07609835 -0.0027593516
-0.14309824 -0.118117005 -0.12279219 -0.12995267 -0.106410615 -0.09693001 -0.08907647 0.19756019
0.24140978 0.30321556 -0.14770456 -0.11157256 -0.08229115 -0.08747178 -0.13013327 -0.13035999
